meta_info_def {
  stripped_op_list {
    op {
      name: "Add"
      input_arg {
        name: "x"
        type_attr: "T"
      }
      input_arg {
        name: "y"
        type_attr: "T"
      }
      output_arg {
        name: "z"
        type_attr: "T"
      }
      attr {
        name: "T"
        type: "type"
        allowed_values {
          list {
            type: DT_HALF
            type: DT_FLOAT
            type: DT_DOUBLE
            type: DT_UINT8
            type: DT_INT8
            type: DT_INT16
            type: DT_INT32
            type: DT_INT64
            type: DT_COMPLEX64
            type: DT_COMPLEX128
            type: DT_STRING
          }
        }
      }
    }
    op {
      name: "ApplyAdam"
      input_arg {
        name: "var"
        type_attr: "T"
        is_ref: true
      }
      input_arg {
        name: "m"
        type_attr: "T"
        is_ref: true
      }
      input_arg {
        name: "v"
        type_attr: "T"
        is_ref: true
      }
      input_arg {
        name: "beta1_power"
        type_attr: "T"
      }
      input_arg {
        name: "beta2_power"
        type_attr: "T"
      }
      input_arg {
        name: "lr"
        type_attr: "T"
      }
      input_arg {
        name: "beta1"
        type_attr: "T"
      }
      input_arg {
        name: "beta2"
        type_attr: "T"
      }
      input_arg {
        name: "epsilon"
        type_attr: "T"
      }
      input_arg {
        name: "grad"
        type_attr: "T"
      }
      output_arg {
        name: "out"
        type_attr: "T"
        is_ref: true
      }
      attr {
        name: "T"
        type: "type"
        allowed_values {
          list {
            type: DT_FLOAT
            type: DT_DOUBLE
            type: DT_INT64
            type: DT_INT32
            type: DT_UINT8
            type: DT_UINT16
            type: DT_INT16
            type: DT_INT8
            type: DT_COMPLEX64
            type: DT_COMPLEX128
            type: DT_QINT8
            type: DT_QUINT8
            type: DT_QINT32
            type: DT_HALF
          }
        }
      }
      attr {
        name: "use_locking"
        type: "bool"
        default_value {
          b: false
        }
      }
      attr {
        name: "use_nesterov"
        type: "bool"
        default_value {
          b: false
        }
      }
    }
    op {
      name: "Assign"
      input_arg {
        name: "ref"
        type_attr: "T"
        is_ref: true
      }
      input_arg {
        name: "value"
        type_attr: "T"
      }
      output_arg {
        name: "output_ref"
        type_attr: "T"
        is_ref: true
      }
      attr {
        name: "T"
        type: "type"
      }
      attr {
        name: "validate_shape"
        type: "bool"
        default_value {
          b: true
        }
      }
      attr {
        name: "use_locking"
        type: "bool"
        default_value {
          b: true
        }
      }
      allows_uninitialized_input: true
    }
    op {
      name: "BroadcastGradientArgs"
      input_arg {
        name: "s0"
        type_attr: "T"
      }
      input_arg {
        name: "s1"
        type_attr: "T"
      }
      output_arg {
        name: "r0"
        type_attr: "T"
      }
      output_arg {
        name: "r1"
        type_attr: "T"
      }
      attr {
        name: "T"
        type: "type"
        default_value {
          type: DT_INT32
        }
        allowed_values {
          list {
            type: DT_INT32
            type: DT_INT64
          }
        }
      }
    }
    op {
      name: "Cast"
      input_arg {
        name: "x"
        type_attr: "SrcT"
      }
      output_arg {
        name: "y"
        type_attr: "DstT"
      }
      attr {
        name: "SrcT"
        type: "type"
      }
      attr {
        name: "DstT"
        type: "type"
      }
    }
    op {
      name: "ConcatV2"
      input_arg {
        name: "values"
        type_attr: "T"
        number_attr: "N"
      }
      input_arg {
        name: "axis"
        type_attr: "Tidx"
      }
      output_arg {
        name: "output"
        type_attr: "T"
      }
      attr {
        name: "N"
        type: "int"
        has_minimum: true
        minimum: 2
      }
      attr {
        name: "T"
        type: "type"
      }
      attr {
        name: "Tidx"
        type: "type"
        default_value {
          type: DT_INT32
        }
        allowed_values {
          list {
            type: DT_INT32
            type: DT_INT64
          }
        }
      }
    }
    op {
      name: "Const"
      output_arg {
        name: "output"
        type_attr: "dtype"
      }
      attr {
        name: "value"
        type: "tensor"
      }
      attr {
        name: "dtype"
        type: "type"
      }
    }
    op {
      name: "Conv2D"
      input_arg {
        name: "input"
        type_attr: "T"
      }
      input_arg {
        name: "filter"
        type_attr: "T"
      }
      output_arg {
        name: "output"
        type_attr: "T"
      }
      attr {
        name: "T"
        type: "type"
        allowed_values {
          list {
            type: DT_HALF
            type: DT_FLOAT
          }
        }
      }
      attr {
        name: "strides"
        type: "list(int)"
      }
      attr {
        name: "use_cudnn_on_gpu"
        type: "bool"
        default_value {
          b: true
        }
      }
      attr {
        name: "padding"
        type: "string"
        allowed_values {
          list {
            s: "SAME"
            s: "VALID"
          }
        }
      }
      attr {
        name: "data_format"
        type: "string"
        default_value {
          s: "NHWC"
        }
        allowed_values {
          list {
            s: "NHWC"
            s: "NCHW"
          }
        }
      }
    }
    op {
      name: "Conv2DBackpropFilter"
      input_arg {
        name: "input"
        type_attr: "T"
      }
      input_arg {
        name: "filter_sizes"
        type: DT_INT32
      }
      input_arg {
        name: "out_backprop"
        type_attr: "T"
      }
      output_arg {
        name: "output"
        type_attr: "T"
      }
      attr {
        name: "T"
        type: "type"
        allowed_values {
          list {
            type: DT_HALF
            type: DT_FLOAT
          }
        }
      }
      attr {
        name: "strides"
        type: "list(int)"
      }
      attr {
        name: "use_cudnn_on_gpu"
        type: "bool"
        default_value {
          b: true
        }
      }
      attr {
        name: "padding"
        type: "string"
        allowed_values {
          list {
            s: "SAME"
            s: "VALID"
          }
        }
      }
      attr {
        name: "data_format"
        type: "string"
        default_value {
          s: "NHWC"
        }
        allowed_values {
          list {
            s: "NHWC"
            s: "NCHW"
          }
        }
      }
    }
    op {
      name: "Conv2DBackpropInput"
      input_arg {
        name: "input_sizes"
        type: DT_INT32
      }
      input_arg {
        name: "filter"
        type_attr: "T"
      }
      input_arg {
        name: "out_backprop"
        type_attr: "T"
      }
      output_arg {
        name: "output"
        type_attr: "T"
      }
      attr {
        name: "T"
        type: "type"
        allowed_values {
          list {
            type: DT_HALF
            type: DT_FLOAT
          }
        }
      }
      attr {
        name: "strides"
        type: "list(int)"
      }
      attr {
        name: "use_cudnn_on_gpu"
        type: "bool"
        default_value {
          b: true
        }
      }
      attr {
        name: "padding"
        type: "string"
        allowed_values {
          list {
            s: "SAME"
            s: "VALID"
          }
        }
      }
      attr {
        name: "data_format"
        type: "string"
        default_value {
          s: "NHWC"
        }
        allowed_values {
          list {
            s: "NHWC"
            s: "NCHW"
          }
        }
      }
    }
    op {
      name: "ExpandDims"
      input_arg {
        name: "input"
        type_attr: "T"
      }
      input_arg {
        name: "dim"
        type_attr: "Tdim"
      }
      output_arg {
        name: "output"
        type_attr: "T"
      }
      attr {
        name: "T"
        type: "type"
      }
      attr {
        name: "Tdim"
        type: "type"
        default_value {
          type: DT_INT32
        }
        allowed_values {
          list {
            type: DT_INT32
            type: DT_INT64
          }
        }
      }
    }
    op {
      name: "Fill"
      input_arg {
        name: "dims"
        type: DT_INT32
      }
      input_arg {
        name: "value"
        type_attr: "T"
      }
      output_arg {
        name: "output"
        type_attr: "T"
      }
      attr {
        name: "T"
        type: "type"
      }
    }
    op {
      name: "FloorDiv"
      input_arg {
        name: "x"
        type_attr: "T"
      }
      input_arg {
        name: "y"
        type_attr: "T"
      }
      output_arg {
        name: "z"
        type_attr: "T"
      }
      attr {
        name: "T"
        type: "type"
        allowed_values {
          list {
            type: DT_HALF
            type: DT_FLOAT
            type: DT_DOUBLE
            type: DT_UINT8
            type: DT_INT8
            type: DT_UINT16
            type: DT_INT16
            type: DT_INT32
            type: DT_INT64
            type: DT_COMPLEX64
            type: DT_COMPLEX128
          }
        }
      }
    }
    op {
      name: "Identity"
      input_arg {
        name: "input"
        type_attr: "T"
      }
      output_arg {
        name: "output"
        type_attr: "T"
      }
      attr {
        name: "T"
        type: "type"
      }
    }
    op {
      name: "L2Loss"
      input_arg {
        name: "t"
        type_attr: "T"
      }
      output_arg {
        name: "output"
        type_attr: "T"
      }
      attr {
        name: "T"
        type: "type"
        allowed_values {
          list {
            type: DT_HALF
            type: DT_FLOAT
            type: DT_DOUBLE
          }
        }
      }
    }
    op {
      name: "MatMul"
      input_arg {
        name: "a"
        type_attr: "T"
      }
      input_arg {
        name: "b"
        type_attr: "T"
      }
      output_arg {
        name: "product"
        type_attr: "T"
      }
      attr {
        name: "transpose_a"
        type: "bool"
        default_value {
          b: false
        }
      }
      attr {
        name: "transpose_b"
        type: "bool"
        default_value {
          b: false
        }
      }
      attr {
        name: "T"
        type: "type"
        allowed_values {
          list {
            type: DT_HALF
            type: DT_FLOAT
            type: DT_DOUBLE
            type: DT_INT32
            type: DT_COMPLEX64
            type: DT_COMPLEX128
          }
        }
      }
    }
    op {
      name: "MaxPool"
      input_arg {
        name: "input"
        type_attr: "T"
      }
      output_arg {
        name: "output"
        type_attr: "T"
      }
      attr {
        name: "T"
        type: "type"
        default_value {
          type: DT_FLOAT
        }
        allowed_values {
          list {
            type: DT_FLOAT
            type: DT_DOUBLE
            type: DT_INT32
            type: DT_INT64
            type: DT_UINT8
            type: DT_INT16
            type: DT_INT8
            type: DT_UINT16
            type: DT_HALF
            type: DT_QINT8
          }
        }
      }
      attr {
        name: "ksize"
        type: "list(int)"
        has_minimum: true
        minimum: 4
      }
      attr {
        name: "strides"
        type: "list(int)"
        has_minimum: true
        minimum: 4
      }
      attr {
        name: "padding"
        type: "string"
        allowed_values {
          list {
            s: "SAME"
            s: "VALID"
          }
        }
      }
      attr {
        name: "data_format"
        type: "string"
        default_value {
          s: "NHWC"
        }
        allowed_values {
          list {
            s: "NHWC"
            s: "NCHW"
            s: "NCHW_VECT_C"
          }
        }
      }
    }
    op {
      name: "MaxPoolGrad"
      input_arg {
        name: "orig_input"
        type_attr: "T"
      }
      input_arg {
        name: "orig_output"
        type_attr: "T"
      }
      input_arg {
        name: "grad"
        type_attr: "T"
      }
      output_arg {
        name: "output"
        type_attr: "T"
      }
      attr {
        name: "ksize"
        type: "list(int)"
        has_minimum: true
        minimum: 4
      }
      attr {
        name: "strides"
        type: "list(int)"
        has_minimum: true
        minimum: 4
      }
      attr {
        name: "padding"
        type: "string"
        allowed_values {
          list {
            s: "SAME"
            s: "VALID"
          }
        }
      }
      attr {
        name: "data_format"
        type: "string"
        default_value {
          s: "NHWC"
        }
        allowed_values {
          list {
            s: "NHWC"
            s: "NCHW"
          }
        }
      }
      attr {
        name: "T"
        type: "type"
        default_value {
          type: DT_FLOAT
        }
        allowed_values {
          list {
            type: DT_FLOAT
            type: DT_DOUBLE
            type: DT_INT32
            type: DT_INT64
            type: DT_UINT8
            type: DT_INT16
            type: DT_INT8
            type: DT_UINT16
            type: DT_HALF
          }
        }
      }
    }
    op {
      name: "Maximum"
      input_arg {
        name: "x"
        type_attr: "T"
      }
      input_arg {
        name: "y"
        type_attr: "T"
      }
      output_arg {
        name: "z"
        type_attr: "T"
      }
      attr {
        name: "T"
        type: "type"
        allowed_values {
          list {
            type: DT_HALF
            type: DT_FLOAT
            type: DT_DOUBLE
            type: DT_INT32
            type: DT_INT64
          }
        }
      }
      is_commutative: true
    }
    op {
      name: "Mean"
      input_arg {
        name: "input"
        type_attr: "T"
      }
      input_arg {
        name: "reduction_indices"
        type_attr: "Tidx"
      }
      output_arg {
        name: "output"
        type_attr: "T"
      }
      attr {
        name: "keep_dims"
        type: "bool"
        default_value {
          b: false
        }
      }
      attr {
        name: "T"
        type: "type"
        allowed_values {
          list {
            type: DT_FLOAT
            type: DT_DOUBLE
            type: DT_INT64
            type: DT_INT32
            type: DT_UINT8
            type: DT_UINT16
            type: DT_INT16
            type: DT_INT8
            type: DT_COMPLEX64
            type: DT_COMPLEX128
            type: DT_QINT8
            type: DT_QUINT8
            type: DT_QINT32
            type: DT_HALF
          }
        }
      }
      attr {
        name: "Tidx"
        type: "type"
        default_value {
          type: DT_INT32
        }
        allowed_values {
          list {
            type: DT_INT32
            type: DT_INT64
          }
        }
      }
    }
    op {
      name: "Mul"
      input_arg {
        name: "x"
        type_attr: "T"
      }
      input_arg {
        name: "y"
        type_attr: "T"
      }
      output_arg {
        name: "z"
        type_attr: "T"
      }
      attr {
        name: "T"
        type: "type"
        allowed_values {
          list {
            type: DT_HALF
            type: DT_FLOAT
            type: DT_DOUBLE
            type: DT_UINT8
            type: DT_INT8
            type: DT_UINT16
            type: DT_INT16
            type: DT_INT32
            type: DT_INT64
            type: DT_COMPLEX64
            type: DT_COMPLEX128
          }
        }
      }
      is_commutative: true
    }
    op {
      name: "NoOp"
    }
    op {
      name: "Pack"
      input_arg {
        name: "values"
        type_attr: "T"
        number_attr: "N"
      }
      output_arg {
        name: "output"
        type_attr: "T"
      }
      attr {
        name: "N"
        type: "int"
        has_minimum: true
        minimum: 1
      }
      attr {
        name: "T"
        type: "type"
      }
      attr {
        name: "axis"
        type: "int"
        default_value {
          i: 0
        }
      }
    }
    op {
      name: "Placeholder"
      output_arg {
        name: "output"
        type_attr: "dtype"
      }
      attr {
        name: "dtype"
        type: "type"
      }
      attr {
        name: "shape"
        type: "shape"
        default_value {
          shape {
            unknown_rank: true
          }
        }
      }
    }
    op {
      name: "Prod"
      input_arg {
        name: "input"
        type_attr: "T"
      }
      input_arg {
        name: "reduction_indices"
        type_attr: "Tidx"
      }
      output_arg {
        name: "output"
        type_attr: "T"
      }
      attr {
        name: "keep_dims"
        type: "bool"
        default_value {
          b: false
        }
      }
      attr {
        name: "T"
        type: "type"
        allowed_values {
          list {
            type: DT_FLOAT
            type: DT_DOUBLE
            type: DT_INT64
            type: DT_INT32
            type: DT_UINT8
            type: DT_UINT16
            type: DT_INT16
            type: DT_INT8
            type: DT_COMPLEX64
            type: DT_COMPLEX128
            type: DT_QINT8
            type: DT_QUINT8
            type: DT_QINT32
            type: DT_HALF
          }
        }
      }
      attr {
        name: "Tidx"
        type: "type"
        default_value {
          type: DT_INT32
        }
        allowed_values {
          list {
            type: DT_INT32
            type: DT_INT64
          }
        }
      }
    }
    op {
      name: "RandomStandardNormal"
      input_arg {
        name: "shape"
        type_attr: "T"
      }
      output_arg {
        name: "output"
        type_attr: "dtype"
      }
      attr {
        name: "seed"
        type: "int"
        default_value {
          i: 0
        }
      }
      attr {
        name: "seed2"
        type: "int"
        default_value {
          i: 0
        }
      }
      attr {
        name: "dtype"
        type: "type"
        allowed_values {
          list {
            type: DT_HALF
            type: DT_FLOAT
            type: DT_DOUBLE
          }
        }
      }
      attr {
        name: "T"
        type: "type"
        allowed_values {
          list {
            type: DT_INT32
            type: DT_INT64
          }
        }
      }
      is_stateful: true
    }
    op {
      name: "RandomUniform"
      input_arg {
        name: "shape"
        type_attr: "T"
      }
      output_arg {
        name: "output"
        type_attr: "dtype"
      }
      attr {
        name: "seed"
        type: "int"
        default_value {
          i: 0
        }
      }
      attr {
        name: "seed2"
        type: "int"
        default_value {
          i: 0
        }
      }
      attr {
        name: "dtype"
        type: "type"
        allowed_values {
          list {
            type: DT_HALF
            type: DT_FLOAT
            type: DT_DOUBLE
          }
        }
      }
      attr {
        name: "T"
        type: "type"
        allowed_values {
          list {
            type: DT_INT32
            type: DT_INT64
          }
        }
      }
      is_stateful: true
    }
    op {
      name: "RealDiv"
      input_arg {
        name: "x"
        type_attr: "T"
      }
      input_arg {
        name: "y"
        type_attr: "T"
      }
      output_arg {
        name: "z"
        type_attr: "T"
      }
      attr {
        name: "T"
        type: "type"
        allowed_values {
          list {
            type: DT_HALF
            type: DT_FLOAT
            type: DT_DOUBLE
            type: DT_UINT8
            type: DT_INT8
            type: DT_UINT16
            type: DT_INT16
            type: DT_INT32
            type: DT_INT64
            type: DT_COMPLEX64
            type: DT_COMPLEX128
          }
        }
      }
    }
    op {
      name: "Relu"
      input_arg {
        name: "features"
        type_attr: "T"
      }
      output_arg {
        name: "activations"
        type_attr: "T"
      }
      attr {
        name: "T"
        type: "type"
        allowed_values {
          list {
            type: DT_FLOAT
            type: DT_DOUBLE
            type: DT_INT32
            type: DT_INT64
            type: DT_UINT8
            type: DT_INT16
            type: DT_INT8
            type: DT_UINT16
            type: DT_HALF
          }
        }
      }
    }
    op {
      name: "ReluGrad"
      input_arg {
        name: "gradients"
        type_attr: "T"
      }
      input_arg {
        name: "features"
        type_attr: "T"
      }
      output_arg {
        name: "backprops"
        type_attr: "T"
      }
      attr {
        name: "T"
        type: "type"
        allowed_values {
          list {
            type: DT_FLOAT
            type: DT_DOUBLE
            type: DT_INT32
            type: DT_INT64
            type: DT_UINT8
            type: DT_INT16
            type: DT_INT8
            type: DT_UINT16
            type: DT_HALF
          }
        }
      }
    }
    op {
      name: "Reshape"
      input_arg {
        name: "tensor"
        type_attr: "T"
      }
      input_arg {
        name: "shape"
        type_attr: "Tshape"
      }
      output_arg {
        name: "output"
        type_attr: "T"
      }
      attr {
        name: "T"
        type: "type"
      }
      attr {
        name: "Tshape"
        type: "type"
        default_value {
          type: DT_INT32
        }
        allowed_values {
          list {
            type: DT_INT32
            type: DT_INT64
          }
        }
      }
    }
    op {
      name: "RestoreV2"
      input_arg {
        name: "prefix"
        type: DT_STRING
      }
      input_arg {
        name: "tensor_names"
        type: DT_STRING
      }
      input_arg {
        name: "shape_and_slices"
        type: DT_STRING
      }
      output_arg {
        name: "tensors"
        type_list_attr: "dtypes"
      }
      attr {
        name: "dtypes"
        type: "list(type)"
        has_minimum: true
        minimum: 1
      }
      is_stateful: true
    }
    op {
      name: "SaveV2"
      input_arg {
        name: "prefix"
        type: DT_STRING
      }
      input_arg {
        name: "tensor_names"
        type: DT_STRING
      }
      input_arg {
        name: "shape_and_slices"
        type: DT_STRING
      }
      input_arg {
        name: "tensors"
        type_list_attr: "dtypes"
      }
      attr {
        name: "dtypes"
        type: "list(type)"
        has_minimum: true
        minimum: 1
      }
      is_stateful: true
    }
    op {
      name: "Shape"
      input_arg {
        name: "input"
        type_attr: "T"
      }
      output_arg {
        name: "output"
        type_attr: "out_type"
      }
      attr {
        name: "T"
        type: "type"
      }
      attr {
        name: "out_type"
        type: "type"
        default_value {
          type: DT_INT32
        }
        allowed_values {
          list {
            type: DT_INT32
            type: DT_INT64
          }
        }
      }
    }
    op {
      name: "ShapeN"
      input_arg {
        name: "input"
        type_attr: "T"
        number_attr: "N"
      }
      output_arg {
        name: "output"
        type_attr: "out_type"
        number_attr: "N"
      }
      attr {
        name: "N"
        type: "int"
        has_minimum: true
        minimum: 1
      }
      attr {
        name: "T"
        type: "type"
      }
      attr {
        name: "out_type"
        type: "type"
        default_value {
          type: DT_INT32
        }
        allowed_values {
          list {
            type: DT_INT32
            type: DT_INT64
          }
        }
      }
    }
    op {
      name: "Slice"
      input_arg {
        name: "input"
        type_attr: "T"
      }
      input_arg {
        name: "begin"
        type_attr: "Index"
      }
      input_arg {
        name: "size"
        type_attr: "Index"
      }
      output_arg {
        name: "output"
        type_attr: "T"
      }
      attr {
        name: "T"
        type: "type"
      }
      attr {
        name: "Index"
        type: "type"
        allowed_values {
          list {
            type: DT_INT32
            type: DT_INT64
          }
        }
      }
    }
    op {
      name: "SoftmaxCrossEntropyWithLogits"
      input_arg {
        name: "features"
        type_attr: "T"
      }
      input_arg {
        name: "labels"
        type_attr: "T"
      }
      output_arg {
        name: "loss"
        type_attr: "T"
      }
      output_arg {
        name: "backprop"
        type_attr: "T"
      }
      attr {
        name: "T"
        type: "type"
        allowed_values {
          list {
            type: DT_HALF
            type: DT_FLOAT
            type: DT_DOUBLE
          }
        }
      }
    }
    op {
      name: "Sub"
      input_arg {
        name: "x"
        type_attr: "T"
      }
      input_arg {
        name: "y"
        type_attr: "T"
      }
      output_arg {
        name: "z"
        type_attr: "T"
      }
      attr {
        name: "T"
        type: "type"
        allowed_values {
          list {
            type: DT_HALF
            type: DT_FLOAT
            type: DT_DOUBLE
            type: DT_UINT8
            type: DT_INT8
            type: DT_UINT16
            type: DT_INT16
            type: DT_INT32
            type: DT_INT64
            type: DT_COMPLEX64
            type: DT_COMPLEX128
          }
        }
      }
    }
    op {
      name: "Sum"
      input_arg {
        name: "input"
        type_attr: "T"
      }
      input_arg {
        name: "reduction_indices"
        type_attr: "Tidx"
      }
      output_arg {
        name: "output"
        type_attr: "T"
      }
      attr {
        name: "keep_dims"
        type: "bool"
        default_value {
          b: false
        }
      }
      attr {
        name: "T"
        type: "type"
        allowed_values {
          list {
            type: DT_FLOAT
            type: DT_DOUBLE
            type: DT_INT64
            type: DT_INT32
            type: DT_UINT8
            type: DT_UINT16
            type: DT_INT16
            type: DT_INT8
            type: DT_COMPLEX64
            type: DT_COMPLEX128
            type: DT_QINT8
            type: DT_QUINT8
            type: DT_QINT32
            type: DT_HALF
          }
        }
      }
      attr {
        name: "Tidx"
        type: "type"
        default_value {
          type: DT_INT32
        }
        allowed_values {
          list {
            type: DT_INT32
            type: DT_INT64
          }
        }
      }
    }
    op {
      name: "Tile"
      input_arg {
        name: "input"
        type_attr: "T"
      }
      input_arg {
        name: "multiples"
        type_attr: "Tmultiples"
      }
      output_arg {
        name: "output"
        type_attr: "T"
      }
      attr {
        name: "T"
        type: "type"
      }
      attr {
        name: "Tmultiples"
        type: "type"
        default_value {
          type: DT_INT32
        }
        allowed_values {
          list {
            type: DT_INT32
            type: DT_INT64
          }
        }
      }
    }
    op {
      name: "VariableV2"
      output_arg {
        name: "ref"
        type_attr: "dtype"
        is_ref: true
      }
      attr {
        name: "shape"
        type: "shape"
      }
      attr {
        name: "dtype"
        type: "type"
      }
      attr {
        name: "container"
        type: "string"
        default_value {
          s: ""
        }
      }
      attr {
        name: "shared_name"
        type: "string"
        default_value {
          s: ""
        }
      }
      is_stateful: true
    }
    op {
      name: "ZerosLike"
      input_arg {
        name: "x"
        type_attr: "T"
      }
      output_arg {
        name: "y"
        type_attr: "T"
      }
      attr {
        name: "T"
        type: "type"
      }
    }
  }
  tensorflow_version: "1.4.0"
  tensorflow_git_version: "v1.4.0-rc1-11-g130a514"
}
graph_def {
  node {
    name: "input"
    op: "Placeholder"
    attr {
      key: "_output_shapes"
      value {
        list {
          shape {
            dim {
              size: -1
            }
            dim {
              size: 28
            }
            dim {
              size: 28
            }
            dim {
              size: 1
            }
          }
        }
      }
    }
    attr {
      key: "dtype"
      value {
        type: DT_FLOAT
      }
    }
    attr {
      key: "shape"
      value {
        shape {
          dim {
            size: -1
          }
          dim {
            size: 28
          }
          dim {
            size: 28
          }
          dim {
            size: 1
          }
        }
      }
    }
  }
  node {
    name: "label"
    op: "Placeholder"
    attr {
      key: "_output_shapes"
      value {
        list {
          shape {
            dim {
              size: -1
            }
            dim {
              size: 10
            }
          }
        }
      }
    }
    attr {
      key: "dtype"
      value {
        type: DT_FLOAT
      }
    }
    attr {
      key: "shape"
      value {
        shape {
          dim {
            size: -1
          }
          dim {
            size: 10
          }
        }
      }
    }
  }
  node {
    name: "conv0/W/Initializer/random_uniform/shape"
    op: "Const"
    attr {
      key: "_class"
      value {
        list {
          s: "loc:@conv0/W"
        }
      }
    }
    attr {
      key: "_output_shapes"
      value {
        list {
          shape {
            dim {
              size: 4
            }
          }
        }
      }
    }
    attr {
      key: "dtype"
      value {
        type: DT_INT32
      }
    }
    attr {
      key: "value"
      value {
        tensor {
          dtype: DT_INT32
          tensor_shape {
            dim {
              size: 4
            }
          }
          tensor_content: "\003\000\000\000\003\000\000\000\001\000\000\000 \000\000\000"
        }
      }
    }
  }
  node {
    name: "conv0/W/Initializer/random_uniform/min"
    op: "Const"
    attr {
      key: "_class"
      value {
        list {
          s: "loc:@conv0/W"
        }
      }
    }
    attr {
      key: "_output_shapes"
      value {
        list {
          shape {
          }
        }
      }
    }
    attr {
      key: "dtype"
      value {
        type: DT_FLOAT
      }
    }
    attr {
      key: "value"
      value {
        tensor {
          dtype: DT_FLOAT
          tensor_shape {
          }
          float_val: -0.14213381707668304
        }
      }
    }
  }
  node {
    name: "conv0/W/Initializer/random_uniform/max"
    op: "Const"
    attr {
      key: "_class"
      value {
        list {
          s: "loc:@conv0/W"
        }
      }
    }
    attr {
      key: "_output_shapes"
      value {
        list {
          shape {
          }
        }
      }
    }
    attr {
      key: "dtype"
      value {
        type: DT_FLOAT
      }
    }
    attr {
      key: "value"
      value {
        tensor {
          dtype: DT_FLOAT
          tensor_shape {
          }
          float_val: 0.14213381707668304
        }
      }
    }
  }
  node {
    name: "conv0/W/Initializer/random_uniform/RandomUniform"
    op: "RandomUniform"
    input: "conv0/W/Initializer/random_uniform/shape"
    attr {
      key: "T"
      value {
        type: DT_INT32
      }
    }
    attr {
      key: "_class"
      value {
        list {
          s: "loc:@conv0/W"
        }
      }
    }
    attr {
      key: "_output_shapes"
      value {
        list {
          shape {
            dim {
              size: 3
            }
            dim {
              size: 3
            }
            dim {
              size: 1
            }
            dim {
              size: 32
            }
          }
        }
      }
    }
    attr {
      key: "dtype"
      value {
        type: DT_FLOAT
      }
    }
    attr {
      key: "seed"
      value {
        i: 777
      }
    }
    attr {
      key: "seed2"
      value {
        i: 5
      }
    }
  }
  node {
    name: "conv0/W/Initializer/random_uniform/sub"
    op: "Sub"
    input: "conv0/W/Initializer/random_uniform/max"
    input: "conv0/W/Initializer/random_uniform/min"
    attr {
      key: "T"
      value {
        type: DT_FLOAT
      }
    }
    attr {
      key: "_class"
      value {
        list {
          s: "loc:@conv0/W"
        }
      }
    }
    attr {
      key: "_output_shapes"
      value {
        list {
          shape {
          }
        }
      }
    }
  }
  node {
    name: "conv0/W/Initializer/random_uniform/mul"
    op: "Mul"
    input: "conv0/W/Initializer/random_uniform/RandomUniform"
    input: "conv0/W/Initializer/random_uniform/sub"
    attr {
      key: "T"
      value {
        type: DT_FLOAT
      }
    }
    attr {
      key: "_class"
      value {
        list {
          s: "loc:@conv0/W"
        }
      }
    }
    attr {
      key: "_output_shapes"
      value {
        list {
          shape {
            dim {
              size: 3
            }
            dim {
              size: 3
            }
            dim {
              size: 1
            }
            dim {
              size: 32
            }
          }
        }
      }
    }
  }
  node {
    name: "conv0/W/Initializer/random_uniform"
    op: "Add"
    input: "conv0/W/Initializer/random_uniform/mul"
    input: "conv0/W/Initializer/random_uniform/min"
    attr {
      key: "T"
      value {
        type: DT_FLOAT
      }
    }
    attr {
      key: "_class"
      value {
        list {
          s: "loc:@conv0/W"
        }
      }
    }
    attr {
      key: "_output_shapes"
      value {
        list {
          shape {
            dim {
              size: 3
            }
            dim {
              size: 3
            }
            dim {
              size: 1
            }
            dim {
              size: 32
            }
          }
        }
      }
    }
  }
  node {
    name: "conv0/W"
    op: "VariableV2"
    attr {
      key: "_class"
      value {
        list {
          s: "loc:@conv0/W"
        }
      }
    }
    attr {
      key: "_output_shapes"
      value {
        list {
          shape {
            dim {
              size: 3
            }
            dim {
              size: 3
            }
            dim {
              size: 1
            }
            dim {
              size: 32
            }
          }
        }
      }
    }
    attr {
      key: "container"
      value {
        s: ""
      }
    }
    attr {
      key: "dtype"
      value {
        type: DT_FLOAT
      }
    }
    attr {
      key: "shape"
      value {
        shape {
          dim {
            size: 3
          }
          dim {
            size: 3
          }
          dim {
            size: 1
          }
          dim {
            size: 32
          }
        }
      }
    }
    attr {
      key: "shared_name"
      value {
        s: ""
      }
    }
  }
  node {
    name: "conv0/W/Assign"
    op: "Assign"
    input: "conv0/W"
    input: "conv0/W/Initializer/random_uniform"
    attr {
      key: "T"
      value {
        type: DT_FLOAT
      }
    }
    attr {
      key: "_class"
      value {
        list {
          s: "loc:@conv0/W"
        }
      }
    }
    attr {
      key: "_output_shapes"
      value {
        list {
          shape {
            dim {
              size: 3
            }
            dim {
              size: 3
            }
            dim {
              size: 1
            }
            dim {
              size: 32
            }
          }
        }
      }
    }
    attr {
      key: "use_locking"
      value {
        b: true
      }
    }
    attr {
      key: "validate_shape"
      value {
        b: true
      }
    }
  }
  node {
    name: "conv0/W/read"
    op: "Identity"
    input: "conv0/W"
    attr {
      key: "T"
      value {
        type: DT_FLOAT
      }
    }
    attr {
      key: "_class"
      value {
        list {
          s: "loc:@conv0/W"
        }
      }
    }
    attr {
      key: "_output_shapes"
      value {
        list {
          shape {
            dim {
              size: 3
            }
            dim {
              size: 3
            }
            dim {
              size: 1
            }
            dim {
              size: 32
            }
          }
        }
      }
    }
  }
  node {
    name: "conv0/W/Regularizer/l2_regularizer/scale"
    op: "Const"
    attr {
      key: "_class"
      value {
        list {
          s: "loc:@conv0/W"
        }
      }
    }
    attr {
      key: "_output_shapes"
      value {
        list {
          shape {
          }
        }
      }
    }
    attr {
      key: "dtype"
      value {
        type: DT_FLOAT
      }
    }
    attr {
      key: "value"
      value {
        tensor {
          dtype: DT_FLOAT
          tensor_shape {
          }
          float_val: 0.05000000074505806
        }
      }
    }
  }
  node {
    name: "conv0/W/Regularizer/l2_regularizer/L2Loss"
    op: "L2Loss"
    input: "conv0/W/read"
    attr {
      key: "T"
      value {
        type: DT_FLOAT
      }
    }
    attr {
      key: "_class"
      value {
        list {
          s: "loc:@conv0/W"
        }
      }
    }
    attr {
      key: "_output_shapes"
      value {
        list {
          shape {
          }
        }
      }
    }
  }
  node {
    name: "conv0/W/Regularizer/l2_regularizer"
    op: "Mul"
    input: "conv0/W/Regularizer/l2_regularizer/scale"
    input: "conv0/W/Regularizer/l2_regularizer/L2Loss"
    attr {
      key: "T"
      value {
        type: DT_FLOAT
      }
    }
    attr {
      key: "_class"
      value {
        list {
          s: "loc:@conv0/W"
        }
      }
    }
    attr {
      key: "_output_shapes"
      value {
        list {
          shape {
          }
        }
      }
    }
  }
  node {
    name: "conv0/cov2d"
    op: "Conv2D"
    input: "input"
    input: "conv0/W/read"
    attr {
      key: "T"
      value {
        type: DT_FLOAT
      }
    }
    attr {
      key: "_output_shapes"
      value {
        list {
          shape {
            dim {
              size: -1
            }
            dim {
              size: 28
            }
            dim {
              size: 28
            }
            dim {
              size: 32
            }
          }
        }
      }
    }
    attr {
      key: "data_format"
      value {
        s: "NHWC"
      }
    }
    attr {
      key: "padding"
      value {
        s: "SAME"
      }
    }
    attr {
      key: "strides"
      value {
        list {
          i: 1
          i: 1
          i: 1
          i: 1
        }
      }
    }
    attr {
      key: "use_cudnn_on_gpu"
      value {
        b: true
      }
    }
  }
  node {
    name: "conv0/random_normal/shape"
    op: "Const"
    attr {
      key: "_output_shapes"
      value {
        list {
          shape {
            dim {
              size: 1
            }
          }
        }
      }
    }
    attr {
      key: "dtype"
      value {
        type: DT_INT32
      }
    }
    attr {
      key: "value"
      value {
        tensor {
          dtype: DT_INT32
          tensor_shape {
            dim {
              size: 1
            }
          }
          int_val: 32
        }
      }
    }
  }
  node {
    name: "conv0/random_normal/mean"
    op: "Const"
    attr {
      key: "_output_shapes"
      value {
        list {
          shape {
          }
        }
      }
    }
    attr {
      key: "dtype"
      value {
        type: DT_FLOAT
      }
    }
    attr {
      key: "value"
      value {
        tensor {
          dtype: DT_FLOAT
          tensor_shape {
          }
          float_val: 0.0
        }
      }
    }
  }
  node {
    name: "conv0/random_normal/stddev"
    op: "Const"
    attr {
      key: "_output_shapes"
      value {
        list {
          shape {
          }
        }
      }
    }
    attr {
      key: "dtype"
      value {
        type: DT_FLOAT
      }
    }
    attr {
      key: "value"
      value {
        tensor {
          dtype: DT_FLOAT
          tensor_shape {
          }
          float_val: 1.0
        }
      }
    }
  }
  node {
    name: "conv0/random_normal/RandomStandardNormal"
    op: "RandomStandardNormal"
    input: "conv0/random_normal/shape"
    attr {
      key: "T"
      value {
        type: DT_INT32
      }
    }
    attr {
      key: "_output_shapes"
      value {
        list {
          shape {
            dim {
              size: 32
            }
          }
        }
      }
    }
    attr {
      key: "dtype"
      value {
        type: DT_FLOAT
      }
    }
    attr {
      key: "seed"
      value {
        i: 777
      }
    }
    attr {
      key: "seed2"
      value {
        i: 19
      }
    }
  }
  node {
    name: "conv0/random_normal/mul"
    op: "Mul"
    input: "conv0/random_normal/RandomStandardNormal"
    input: "conv0/random_normal/stddev"
    attr {
      key: "T"
      value {
        type: DT_FLOAT
      }
    }
    attr {
      key: "_output_shapes"
      value {
        list {
          shape {
            dim {
              size: 32
            }
          }
        }
      }
    }
  }
  node {
    name: "conv0/random_normal"
    op: "Add"
    input: "conv0/random_normal/mul"
    input: "conv0/random_normal/mean"
    attr {
      key: "T"
      value {
        type: DT_FLOAT
      }
    }
    attr {
      key: "_output_shapes"
      value {
        list {
          shape {
            dim {
              size: 32
            }
          }
        }
      }
    }
  }
  node {
    name: "conv0/Variable"
    op: "VariableV2"
    attr {
      key: "_output_shapes"
      value {
        list {
          shape {
            dim {
              size: 32
            }
          }
        }
      }
    }
    attr {
      key: "container"
      value {
        s: ""
      }
    }
    attr {
      key: "dtype"
      value {
        type: DT_FLOAT
      }
    }
    attr {
      key: "shape"
      value {
        shape {
          dim {
            size: 32
          }
        }
      }
    }
    attr {
      key: "shared_name"
      value {
        s: ""
      }
    }
  }
  node {
    name: "conv0/Variable/Assign"
    op: "Assign"
    input: "conv0/Variable"
    input: "conv0/random_normal"
    attr {
      key: "T"
      value {
        type: DT_FLOAT
      }
    }
    attr {
      key: "_class"
      value {
        list {
          s: "loc:@conv0/Variable"
        }
      }
    }
    attr {
      key: "_output_shapes"
      value {
        list {
          shape {
            dim {
              size: 32
            }
          }
        }
      }
    }
    attr {
      key: "use_locking"
      value {
        b: true
      }
    }
    attr {
      key: "validate_shape"
      value {
        b: true
      }
    }
  }
  node {
    name: "conv0/Variable/read"
    op: "Identity"
    input: "conv0/Variable"
    attr {
      key: "T"
      value {
        type: DT_FLOAT
      }
    }
    attr {
      key: "_class"
      value {
        list {
          s: "loc:@conv0/Variable"
        }
      }
    }
    attr {
      key: "_output_shapes"
      value {
        list {
          shape {
            dim {
              size: 32
            }
          }
        }
      }
    }
  }
  node {
    name: "conv0/add"
    op: "Add"
    input: "conv0/cov2d"
    input: "conv0/Variable/read"
    attr {
      key: "T"
      value {
        type: DT_FLOAT
      }
    }
    attr {
      key: "_output_shapes"
      value {
        list {
          shape {
            dim {
              size: -1
            }
            dim {
              size: 28
            }
            dim {
              size: 28
            }
            dim {
              size: 32
            }
          }
        }
      }
    }
  }
  node {
    name: "conv0/Relu"
    op: "Relu"
    input: "conv0/add"
    attr {
      key: "T"
      value {
        type: DT_FLOAT
      }
    }
    attr {
      key: "_output_shapes"
      value {
        list {
          shape {
            dim {
              size: -1
            }
            dim {
              size: 28
            }
            dim {
              size: 28
            }
            dim {
              size: 32
            }
          }
        }
      }
    }
  }
  node {
    name: "conv0/MaxPool"
    op: "MaxPool"
    input: "conv0/Relu"
    attr {
      key: "T"
      value {
        type: DT_FLOAT
      }
    }
    attr {
      key: "_output_shapes"
      value {
        list {
          shape {
            dim {
              size: -1
            }
            dim {
              size: 14
            }
            dim {
              size: 14
            }
            dim {
              size: 32
            }
          }
        }
      }
    }
    attr {
      key: "data_format"
      value {
        s: "NHWC"
      }
    }
    attr {
      key: "ksize"
      value {
        list {
          i: 1
          i: 2
          i: 2
          i: 1
        }
      }
    }
    attr {
      key: "padding"
      value {
        s: "SAME"
      }
    }
    attr {
      key: "strides"
      value {
        list {
          i: 1
          i: 2
          i: 2
          i: 1
        }
      }
    }
  }
  node {
    name: "conv1/W/Initializer/random_uniform/shape"
    op: "Const"
    attr {
      key: "_class"
      value {
        list {
          s: "loc:@conv1/W"
        }
      }
    }
    attr {
      key: "_output_shapes"
      value {
        list {
          shape {
            dim {
              size: 4
            }
          }
        }
      }
    }
    attr {
      key: "dtype"
      value {
        type: DT_INT32
      }
    }
    attr {
      key: "value"
      value {
        tensor {
          dtype: DT_INT32
          tensor_shape {
            dim {
              size: 4
            }
          }
          tensor_content: "\003\000\000\000\003\000\000\000 \000\000\000@\000\000\000"
        }
      }
    }
  }
  node {
    name: "conv1/W/Initializer/random_uniform/min"
    op: "Const"
    attr {
      key: "_class"
      value {
        list {
          s: "loc:@conv1/W"
        }
      }
    }
    attr {
      key: "_output_shapes"
      value {
        list {
          shape {
          }
        }
      }
    }
    attr {
      key: "dtype"
      value {
        type: DT_FLOAT
      }
    }
    attr {
      key: "value"
      value {
        tensor {
          dtype: DT_FLOAT
          tensor_shape {
          }
          float_val: -0.0833333358168602
        }
      }
    }
  }
  node {
    name: "conv1/W/Initializer/random_uniform/max"
    op: "Const"
    attr {
      key: "_class"
      value {
        list {
          s: "loc:@conv1/W"
        }
      }
    }
    attr {
      key: "_output_shapes"
      value {
        list {
          shape {
          }
        }
      }
    }
    attr {
      key: "dtype"
      value {
        type: DT_FLOAT
      }
    }
    attr {
      key: "value"
      value {
        tensor {
          dtype: DT_FLOAT
          tensor_shape {
          }
          float_val: 0.0833333358168602
        }
      }
    }
  }
  node {
    name: "conv1/W/Initializer/random_uniform/RandomUniform"
    op: "RandomUniform"
    input: "conv1/W/Initializer/random_uniform/shape"
    attr {
      key: "T"
      value {
        type: DT_INT32
      }
    }
    attr {
      key: "_class"
      value {
        list {
          s: "loc:@conv1/W"
        }
      }
    }
    attr {
      key: "_output_shapes"
      value {
        list {
          shape {
            dim {
              size: 3
            }
            dim {
              size: 3
            }
            dim {
              size: 32
            }
            dim {
              size: 64
            }
          }
        }
      }
    }
    attr {
      key: "dtype"
      value {
        type: DT_FLOAT
      }
    }
    attr {
      key: "seed"
      value {
        i: 777
      }
    }
    attr {
      key: "seed2"
      value {
        i: 31
      }
    }
  }
  node {
    name: "conv1/W/Initializer/random_uniform/sub"
    op: "Sub"
    input: "conv1/W/Initializer/random_uniform/max"
    input: "conv1/W/Initializer/random_uniform/min"
    attr {
      key: "T"
      value {
        type: DT_FLOAT
      }
    }
    attr {
      key: "_class"
      value {
        list {
          s: "loc:@conv1/W"
        }
      }
    }
    attr {
      key: "_output_shapes"
      value {
        list {
          shape {
          }
        }
      }
    }
  }
  node {
    name: "conv1/W/Initializer/random_uniform/mul"
    op: "Mul"
    input: "conv1/W/Initializer/random_uniform/RandomUniform"
    input: "conv1/W/Initializer/random_uniform/sub"
    attr {
      key: "T"
      value {
        type: DT_FLOAT
      }
    }
    attr {
      key: "_class"
      value {
        list {
          s: "loc:@conv1/W"
        }
      }
    }
    attr {
      key: "_output_shapes"
      value {
        list {
          shape {
            dim {
              size: 3
            }
            dim {
              size: 3
            }
            dim {
              size: 32
            }
            dim {
              size: 64
            }
          }
        }
      }
    }
  }
  node {
    name: "conv1/W/Initializer/random_uniform"
    op: "Add"
    input: "conv1/W/Initializer/random_uniform/mul"
    input: "conv1/W/Initializer/random_uniform/min"
    attr {
      key: "T"
      value {
        type: DT_FLOAT
      }
    }
    attr {
      key: "_class"
      value {
        list {
          s: "loc:@conv1/W"
        }
      }
    }
    attr {
      key: "_output_shapes"
      value {
        list {
          shape {
            dim {
              size: 3
            }
            dim {
              size: 3
            }
            dim {
              size: 32
            }
            dim {
              size: 64
            }
          }
        }
      }
    }
  }
  node {
    name: "conv1/W"
    op: "VariableV2"
    attr {
      key: "_class"
      value {
        list {
          s: "loc:@conv1/W"
        }
      }
    }
    attr {
      key: "_output_shapes"
      value {
        list {
          shape {
            dim {
              size: 3
            }
            dim {
              size: 3
            }
            dim {
              size: 32
            }
            dim {
              size: 64
            }
          }
        }
      }
    }
    attr {
      key: "container"
      value {
        s: ""
      }
    }
    attr {
      key: "dtype"
      value {
        type: DT_FLOAT
      }
    }
    attr {
      key: "shape"
      value {
        shape {
          dim {
            size: 3
          }
          dim {
            size: 3
          }
          dim {
            size: 32
          }
          dim {
            size: 64
          }
        }
      }
    }
    attr {
      key: "shared_name"
      value {
        s: ""
      }
    }
  }
  node {
    name: "conv1/W/Assign"
    op: "Assign"
    input: "conv1/W"
    input: "conv1/W/Initializer/random_uniform"
    attr {
      key: "T"
      value {
        type: DT_FLOAT
      }
    }
    attr {
      key: "_class"
      value {
        list {
          s: "loc:@conv1/W"
        }
      }
    }
    attr {
      key: "_output_shapes"
      value {
        list {
          shape {
            dim {
              size: 3
            }
            dim {
              size: 3
            }
            dim {
              size: 32
            }
            dim {
              size: 64
            }
          }
        }
      }
    }
    attr {
      key: "use_locking"
      value {
        b: true
      }
    }
    attr {
      key: "validate_shape"
      value {
        b: true
      }
    }
  }
  node {
    name: "conv1/W/read"
    op: "Identity"
    input: "conv1/W"
    attr {
      key: "T"
      value {
        type: DT_FLOAT
      }
    }
    attr {
      key: "_class"
      value {
        list {
          s: "loc:@conv1/W"
        }
      }
    }
    attr {
      key: "_output_shapes"
      value {
        list {
          shape {
            dim {
              size: 3
            }
            dim {
              size: 3
            }
            dim {
              size: 32
            }
            dim {
              size: 64
            }
          }
        }
      }
    }
  }
  node {
    name: "conv1/W/Regularizer/l2_regularizer/scale"
    op: "Const"
    attr {
      key: "_class"
      value {
        list {
          s: "loc:@conv1/W"
        }
      }
    }
    attr {
      key: "_output_shapes"
      value {
        list {
          shape {
          }
        }
      }
    }
    attr {
      key: "dtype"
      value {
        type: DT_FLOAT
      }
    }
    attr {
      key: "value"
      value {
        tensor {
          dtype: DT_FLOAT
          tensor_shape {
          }
          float_val: 0.05000000074505806
        }
      }
    }
  }
  node {
    name: "conv1/W/Regularizer/l2_regularizer/L2Loss"
    op: "L2Loss"
    input: "conv1/W/read"
    attr {
      key: "T"
      value {
        type: DT_FLOAT
      }
    }
    attr {
      key: "_class"
      value {
        list {
          s: "loc:@conv1/W"
        }
      }
    }
    attr {
      key: "_output_shapes"
      value {
        list {
          shape {
          }
        }
      }
    }
  }
  node {
    name: "conv1/W/Regularizer/l2_regularizer"
    op: "Mul"
    input: "conv1/W/Regularizer/l2_regularizer/scale"
    input: "conv1/W/Regularizer/l2_regularizer/L2Loss"
    attr {
      key: "T"
      value {
        type: DT_FLOAT
      }
    }
    attr {
      key: "_class"
      value {
        list {
          s: "loc:@conv1/W"
        }
      }
    }
    attr {
      key: "_output_shapes"
      value {
        list {
          shape {
          }
        }
      }
    }
  }
  node {
    name: "conv1/cov2d"
    op: "Conv2D"
    input: "conv0/MaxPool"
    input: "conv1/W/read"
    attr {
      key: "T"
      value {
        type: DT_FLOAT
      }
    }
    attr {
      key: "_output_shapes"
      value {
        list {
          shape {
            dim {
              size: -1
            }
            dim {
              size: 14
            }
            dim {
              size: 14
            }
            dim {
              size: 64
            }
          }
        }
      }
    }
    attr {
      key: "data_format"
      value {
        s: "NHWC"
      }
    }
    attr {
      key: "padding"
      value {
        s: "SAME"
      }
    }
    attr {
      key: "strides"
      value {
        list {
          i: 1
          i: 1
          i: 1
          i: 1
        }
      }
    }
    attr {
      key: "use_cudnn_on_gpu"
      value {
        b: true
      }
    }
  }
  node {
    name: "conv1/random_normal/shape"
    op: "Const"
    attr {
      key: "_output_shapes"
      value {
        list {
          shape {
            dim {
              size: 1
            }
          }
        }
      }
    }
    attr {
      key: "dtype"
      value {
        type: DT_INT32
      }
    }
    attr {
      key: "value"
      value {
        tensor {
          dtype: DT_INT32
          tensor_shape {
            dim {
              size: 1
            }
          }
          int_val: 64
        }
      }
    }
  }
  node {
    name: "conv1/random_normal/mean"
    op: "Const"
    attr {
      key: "_output_shapes"
      value {
        list {
          shape {
          }
        }
      }
    }
    attr {
      key: "dtype"
      value {
        type: DT_FLOAT
      }
    }
    attr {
      key: "value"
      value {
        tensor {
          dtype: DT_FLOAT
          tensor_shape {
          }
          float_val: 0.0
        }
      }
    }
  }
  node {
    name: "conv1/random_normal/stddev"
    op: "Const"
    attr {
      key: "_output_shapes"
      value {
        list {
          shape {
          }
        }
      }
    }
    attr {
      key: "dtype"
      value {
        type: DT_FLOAT
      }
    }
    attr {
      key: "value"
      value {
        tensor {
          dtype: DT_FLOAT
          tensor_shape {
          }
          float_val: 1.0
        }
      }
    }
  }
  node {
    name: "conv1/random_normal/RandomStandardNormal"
    op: "RandomStandardNormal"
    input: "conv1/random_normal/shape"
    attr {
      key: "T"
      value {
        type: DT_INT32
      }
    }
    attr {
      key: "_output_shapes"
      value {
        list {
          shape {
            dim {
              size: 64
            }
          }
        }
      }
    }
    attr {
      key: "dtype"
      value {
        type: DT_FLOAT
      }
    }
    attr {
      key: "seed"
      value {
        i: 777
      }
    }
    attr {
      key: "seed2"
      value {
        i: 45
      }
    }
  }
  node {
    name: "conv1/random_normal/mul"
    op: "Mul"
    input: "conv1/random_normal/RandomStandardNormal"
    input: "conv1/random_normal/stddev"
    attr {
      key: "T"
      value {
        type: DT_FLOAT
      }
    }
    attr {
      key: "_output_shapes"
      value {
        list {
          shape {
            dim {
              size: 64
            }
          }
        }
      }
    }
  }
  node {
    name: "conv1/random_normal"
    op: "Add"
    input: "conv1/random_normal/mul"
    input: "conv1/random_normal/mean"
    attr {
      key: "T"
      value {
        type: DT_FLOAT
      }
    }
    attr {
      key: "_output_shapes"
      value {
        list {
          shape {
            dim {
              size: 64
            }
          }
        }
      }
    }
  }
  node {
    name: "conv1/Variable"
    op: "VariableV2"
    attr {
      key: "_output_shapes"
      value {
        list {
          shape {
            dim {
              size: 64
            }
          }
        }
      }
    }
    attr {
      key: "container"
      value {
        s: ""
      }
    }
    attr {
      key: "dtype"
      value {
        type: DT_FLOAT
      }
    }
    attr {
      key: "shape"
      value {
        shape {
          dim {
            size: 64
          }
        }
      }
    }
    attr {
      key: "shared_name"
      value {
        s: ""
      }
    }
  }
  node {
    name: "conv1/Variable/Assign"
    op: "Assign"
    input: "conv1/Variable"
    input: "conv1/random_normal"
    attr {
      key: "T"
      value {
        type: DT_FLOAT
      }
    }
    attr {
      key: "_class"
      value {
        list {
          s: "loc:@conv1/Variable"
        }
      }
    }
    attr {
      key: "_output_shapes"
      value {
        list {
          shape {
            dim {
              size: 64
            }
          }
        }
      }
    }
    attr {
      key: "use_locking"
      value {
        b: true
      }
    }
    attr {
      key: "validate_shape"
      value {
        b: true
      }
    }
  }
  node {
    name: "conv1/Variable/read"
    op: "Identity"
    input: "conv1/Variable"
    attr {
      key: "T"
      value {
        type: DT_FLOAT
      }
    }
    attr {
      key: "_class"
      value {
        list {
          s: "loc:@conv1/Variable"
        }
      }
    }
    attr {
      key: "_output_shapes"
      value {
        list {
          shape {
            dim {
              size: 64
            }
          }
        }
      }
    }
  }
  node {
    name: "conv1/add"
    op: "Add"
    input: "conv1/cov2d"
    input: "conv1/Variable/read"
    attr {
      key: "T"
      value {
        type: DT_FLOAT
      }
    }
    attr {
      key: "_output_shapes"
      value {
        list {
          shape {
            dim {
              size: -1
            }
            dim {
              size: 14
            }
            dim {
              size: 14
            }
            dim {
              size: 64
            }
          }
        }
      }
    }
  }
  node {
    name: "conv1/Relu"
    op: "Relu"
    input: "conv1/add"
    attr {
      key: "T"
      value {
        type: DT_FLOAT
      }
    }
    attr {
      key: "_output_shapes"
      value {
        list {
          shape {
            dim {
              size: -1
            }
            dim {
              size: 14
            }
            dim {
              size: 14
            }
            dim {
              size: 64
            }
          }
        }
      }
    }
  }
  node {
    name: "conv1/MaxPool"
    op: "MaxPool"
    input: "conv1/Relu"
    attr {
      key: "T"
      value {
        type: DT_FLOAT
      }
    }
    attr {
      key: "_output_shapes"
      value {
        list {
          shape {
            dim {
              size: -1
            }
            dim {
              size: 7
            }
            dim {
              size: 7
            }
            dim {
              size: 64
            }
          }
        }
      }
    }
    attr {
      key: "data_format"
      value {
        s: "NHWC"
      }
    }
    attr {
      key: "ksize"
      value {
        list {
          i: 1
          i: 2
          i: 2
          i: 1
        }
      }
    }
    attr {
      key: "padding"
      value {
        s: "SAME"
      }
    }
    attr {
      key: "strides"
      value {
        list {
          i: 1
          i: 2
          i: 2
          i: 1
        }
      }
    }
  }
  node {
    name: "conv2/W/Initializer/random_uniform/shape"
    op: "Const"
    attr {
      key: "_class"
      value {
        list {
          s: "loc:@conv2/W"
        }
      }
    }
    attr {
      key: "_output_shapes"
      value {
        list {
          shape {
            dim {
              size: 4
            }
          }
        }
      }
    }
    attr {
      key: "dtype"
      value {
        type: DT_INT32
      }
    }
    attr {
      key: "value"
      value {
        tensor {
          dtype: DT_INT32
          tensor_shape {
            dim {
              size: 4
            }
          }
          tensor_content: "\003\000\000\000\003\000\000\000@\000\000\000\200\000\000\000"
        }
      }
    }
  }
  node {
    name: "conv2/W/Initializer/random_uniform/min"
    op: "Const"
    attr {
      key: "_class"
      value {
        list {
          s: "loc:@conv2/W"
        }
      }
    }
    attr {
      key: "_output_shapes"
      value {
        list {
          shape {
          }
        }
      }
    }
    attr {
      key: "dtype"
      value {
        type: DT_FLOAT
      }
    }
    attr {
      key: "value"
      value {
        tensor {
          dtype: DT_FLOAT
          tensor_shape {
          }
          float_val: -0.0589255653321743
        }
      }
    }
  }
  node {
    name: "conv2/W/Initializer/random_uniform/max"
    op: "Const"
    attr {
      key: "_class"
      value {
        list {
          s: "loc:@conv2/W"
        }
      }
    }
    attr {
      key: "_output_shapes"
      value {
        list {
          shape {
          }
        }
      }
    }
    attr {
      key: "dtype"
      value {
        type: DT_FLOAT
      }
    }
    attr {
      key: "value"
      value {
        tensor {
          dtype: DT_FLOAT
          tensor_shape {
          }
          float_val: 0.0589255653321743
        }
      }
    }
  }
  node {
    name: "conv2/W/Initializer/random_uniform/RandomUniform"
    op: "RandomUniform"
    input: "conv2/W/Initializer/random_uniform/shape"
    attr {
      key: "T"
      value {
        type: DT_INT32
      }
    }
    attr {
      key: "_class"
      value {
        list {
          s: "loc:@conv2/W"
        }
      }
    }
    attr {
      key: "_output_shapes"
      value {
        list {
          shape {
            dim {
              size: 3
            }
            dim {
              size: 3
            }
            dim {
              size: 64
            }
            dim {
              size: 128
            }
          }
        }
      }
    }
    attr {
      key: "dtype"
      value {
        type: DT_FLOAT
      }
    }
    attr {
      key: "seed"
      value {
        i: 777
      }
    }
    attr {
      key: "seed2"
      value {
        i: 57
      }
    }
  }
  node {
    name: "conv2/W/Initializer/random_uniform/sub"
    op: "Sub"
    input: "conv2/W/Initializer/random_uniform/max"
    input: "conv2/W/Initializer/random_uniform/min"
    attr {
      key: "T"
      value {
        type: DT_FLOAT
      }
    }
    attr {
      key: "_class"
      value {
        list {
          s: "loc:@conv2/W"
        }
      }
    }
    attr {
      key: "_output_shapes"
      value {
        list {
          shape {
          }
        }
      }
    }
  }
  node {
    name: "conv2/W/Initializer/random_uniform/mul"
    op: "Mul"
    input: "conv2/W/Initializer/random_uniform/RandomUniform"
    input: "conv2/W/Initializer/random_uniform/sub"
    attr {
      key: "T"
      value {
        type: DT_FLOAT
      }
    }
    attr {
      key: "_class"
      value {
        list {
          s: "loc:@conv2/W"
        }
      }
    }
    attr {
      key: "_output_shapes"
      value {
        list {
          shape {
            dim {
              size: 3
            }
            dim {
              size: 3
            }
            dim {
              size: 64
            }
            dim {
              size: 128
            }
          }
        }
      }
    }
  }
  node {
    name: "conv2/W/Initializer/random_uniform"
    op: "Add"
    input: "conv2/W/Initializer/random_uniform/mul"
    input: "conv2/W/Initializer/random_uniform/min"
    attr {
      key: "T"
      value {
        type: DT_FLOAT
      }
    }
    attr {
      key: "_class"
      value {
        list {
          s: "loc:@conv2/W"
        }
      }
    }
    attr {
      key: "_output_shapes"
      value {
        list {
          shape {
            dim {
              size: 3
            }
            dim {
              size: 3
            }
            dim {
              size: 64
            }
            dim {
              size: 128
            }
          }
        }
      }
    }
  }
  node {
    name: "conv2/W"
    op: "VariableV2"
    attr {
      key: "_class"
      value {
        list {
          s: "loc:@conv2/W"
        }
      }
    }
    attr {
      key: "_output_shapes"
      value {
        list {
          shape {
            dim {
              size: 3
            }
            dim {
              size: 3
            }
            dim {
              size: 64
            }
            dim {
              size: 128
            }
          }
        }
      }
    }
    attr {
      key: "container"
      value {
        s: ""
      }
    }
    attr {
      key: "dtype"
      value {
        type: DT_FLOAT
      }
    }
    attr {
      key: "shape"
      value {
        shape {
          dim {
            size: 3
          }
          dim {
            size: 3
          }
          dim {
            size: 64
          }
          dim {
            size: 128
          }
        }
      }
    }
    attr {
      key: "shared_name"
      value {
        s: ""
      }
    }
  }
  node {
    name: "conv2/W/Assign"
    op: "Assign"
    input: "conv2/W"
    input: "conv2/W/Initializer/random_uniform"
    attr {
      key: "T"
      value {
        type: DT_FLOAT
      }
    }
    attr {
      key: "_class"
      value {
        list {
          s: "loc:@conv2/W"
        }
      }
    }
    attr {
      key: "_output_shapes"
      value {
        list {
          shape {
            dim {
              size: 3
            }
            dim {
              size: 3
            }
            dim {
              size: 64
            }
            dim {
              size: 128
            }
          }
        }
      }
    }
    attr {
      key: "use_locking"
      value {
        b: true
      }
    }
    attr {
      key: "validate_shape"
      value {
        b: true
      }
    }
  }
  node {
    name: "conv2/W/read"
    op: "Identity"
    input: "conv2/W"
    attr {
      key: "T"
      value {
        type: DT_FLOAT
      }
    }
    attr {
      key: "_class"
      value {
        list {
          s: "loc:@conv2/W"
        }
      }
    }
    attr {
      key: "_output_shapes"
      value {
        list {
          shape {
            dim {
              size: 3
            }
            dim {
              size: 3
            }
            dim {
              size: 64
            }
            dim {
              size: 128
            }
          }
        }
      }
    }
  }
  node {
    name: "conv2/W/Regularizer/l2_regularizer/scale"
    op: "Const"
    attr {
      key: "_class"
      value {
        list {
          s: "loc:@conv2/W"
        }
      }
    }
    attr {
      key: "_output_shapes"
      value {
        list {
          shape {
          }
        }
      }
    }
    attr {
      key: "dtype"
      value {
        type: DT_FLOAT
      }
    }
    attr {
      key: "value"
      value {
        tensor {
          dtype: DT_FLOAT
          tensor_shape {
          }
          float_val: 0.05000000074505806
        }
      }
    }
  }
  node {
    name: "conv2/W/Regularizer/l2_regularizer/L2Loss"
    op: "L2Loss"
    input: "conv2/W/read"
    attr {
      key: "T"
      value {
        type: DT_FLOAT
      }
    }
    attr {
      key: "_class"
      value {
        list {
          s: "loc:@conv2/W"
        }
      }
    }
    attr {
      key: "_output_shapes"
      value {
        list {
          shape {
          }
        }
      }
    }
  }
  node {
    name: "conv2/W/Regularizer/l2_regularizer"
    op: "Mul"
    input: "conv2/W/Regularizer/l2_regularizer/scale"
    input: "conv2/W/Regularizer/l2_regularizer/L2Loss"
    attr {
      key: "T"
      value {
        type: DT_FLOAT
      }
    }
    attr {
      key: "_class"
      value {
        list {
          s: "loc:@conv2/W"
        }
      }
    }
    attr {
      key: "_output_shapes"
      value {
        list {
          shape {
          }
        }
      }
    }
  }
  node {
    name: "conv2/cov2d"
    op: "Conv2D"
    input: "conv1/MaxPool"
    input: "conv2/W/read"
    attr {
      key: "T"
      value {
        type: DT_FLOAT
      }
    }
    attr {
      key: "_output_shapes"
      value {
        list {
          shape {
            dim {
              size: -1
            }
            dim {
              size: 7
            }
            dim {
              size: 7
            }
            dim {
              size: 128
            }
          }
        }
      }
    }
    attr {
      key: "data_format"
      value {
        s: "NHWC"
      }
    }
    attr {
      key: "padding"
      value {
        s: "SAME"
      }
    }
    attr {
      key: "strides"
      value {
        list {
          i: 1
          i: 1
          i: 1
          i: 1
        }
      }
    }
    attr {
      key: "use_cudnn_on_gpu"
      value {
        b: true
      }
    }
  }
  node {
    name: "conv2/random_normal/shape"
    op: "Const"
    attr {
      key: "_output_shapes"
      value {
        list {
          shape {
            dim {
              size: 1
            }
          }
        }
      }
    }
    attr {
      key: "dtype"
      value {
        type: DT_INT32
      }
    }
    attr {
      key: "value"
      value {
        tensor {
          dtype: DT_INT32
          tensor_shape {
            dim {
              size: 1
            }
          }
          int_val: 128
        }
      }
    }
  }
  node {
    name: "conv2/random_normal/mean"
    op: "Const"
    attr {
      key: "_output_shapes"
      value {
        list {
          shape {
          }
        }
      }
    }
    attr {
      key: "dtype"
      value {
        type: DT_FLOAT
      }
    }
    attr {
      key: "value"
      value {
        tensor {
          dtype: DT_FLOAT
          tensor_shape {
          }
          float_val: 0.0
        }
      }
    }
  }
  node {
    name: "conv2/random_normal/stddev"
    op: "Const"
    attr {
      key: "_output_shapes"
      value {
        list {
          shape {
          }
        }
      }
    }
    attr {
      key: "dtype"
      value {
        type: DT_FLOAT
      }
    }
    attr {
      key: "value"
      value {
        tensor {
          dtype: DT_FLOAT
          tensor_shape {
          }
          float_val: 1.0
        }
      }
    }
  }
  node {
    name: "conv2/random_normal/RandomStandardNormal"
    op: "RandomStandardNormal"
    input: "conv2/random_normal/shape"
    attr {
      key: "T"
      value {
        type: DT_INT32
      }
    }
    attr {
      key: "_output_shapes"
      value {
        list {
          shape {
            dim {
              size: 128
            }
          }
        }
      }
    }
    attr {
      key: "dtype"
      value {
        type: DT_FLOAT
      }
    }
    attr {
      key: "seed"
      value {
        i: 777
      }
    }
    attr {
      key: "seed2"
      value {
        i: 71
      }
    }
  }
  node {
    name: "conv2/random_normal/mul"
    op: "Mul"
    input: "conv2/random_normal/RandomStandardNormal"
    input: "conv2/random_normal/stddev"
    attr {
      key: "T"
      value {
        type: DT_FLOAT
      }
    }
    attr {
      key: "_output_shapes"
      value {
        list {
          shape {
            dim {
              size: 128
            }
          }
        }
      }
    }
  }
  node {
    name: "conv2/random_normal"
    op: "Add"
    input: "conv2/random_normal/mul"
    input: "conv2/random_normal/mean"
    attr {
      key: "T"
      value {
        type: DT_FLOAT
      }
    }
    attr {
      key: "_output_shapes"
      value {
        list {
          shape {
            dim {
              size: 128
            }
          }
        }
      }
    }
  }
  node {
    name: "conv2/Variable"
    op: "VariableV2"
    attr {
      key: "_output_shapes"
      value {
        list {
          shape {
            dim {
              size: 128
            }
          }
        }
      }
    }
    attr {
      key: "container"
      value {
        s: ""
      }
    }
    attr {
      key: "dtype"
      value {
        type: DT_FLOAT
      }
    }
    attr {
      key: "shape"
      value {
        shape {
          dim {
            size: 128
          }
        }
      }
    }
    attr {
      key: "shared_name"
      value {
        s: ""
      }
    }
  }
  node {
    name: "conv2/Variable/Assign"
    op: "Assign"
    input: "conv2/Variable"
    input: "conv2/random_normal"
    attr {
      key: "T"
      value {
        type: DT_FLOAT
      }
    }
    attr {
      key: "_class"
      value {
        list {
          s: "loc:@conv2/Variable"
        }
      }
    }
    attr {
      key: "_output_shapes"
      value {
        list {
          shape {
            dim {
              size: 128
            }
          }
        }
      }
    }
    attr {
      key: "use_locking"
      value {
        b: true
      }
    }
    attr {
      key: "validate_shape"
      value {
        b: true
      }
    }
  }
  node {
    name: "conv2/Variable/read"
    op: "Identity"
    input: "conv2/Variable"
    attr {
      key: "T"
      value {
        type: DT_FLOAT
      }
    }
    attr {
      key: "_class"
      value {
        list {
          s: "loc:@conv2/Variable"
        }
      }
    }
    attr {
      key: "_output_shapes"
      value {
        list {
          shape {
            dim {
              size: 128
            }
          }
        }
      }
    }
  }
  node {
    name: "conv2/add"
    op: "Add"
    input: "conv2/cov2d"
    input: "conv2/Variable/read"
    attr {
      key: "T"
      value {
        type: DT_FLOAT
      }
    }
    attr {
      key: "_output_shapes"
      value {
        list {
          shape {
            dim {
              size: -1
            }
            dim {
              size: 7
            }
            dim {
              size: 7
            }
            dim {
              size: 128
            }
          }
        }
      }
    }
  }
  node {
    name: "conv2/Relu"
    op: "Relu"
    input: "conv2/add"
    attr {
      key: "T"
      value {
        type: DT_FLOAT
      }
    }
    attr {
      key: "_output_shapes"
      value {
        list {
          shape {
            dim {
              size: -1
            }
            dim {
              size: 7
            }
            dim {
              size: 7
            }
            dim {
              size: 128
            }
          }
        }
      }
    }
  }
  node {
    name: "conv2/MaxPool"
    op: "MaxPool"
    input: "conv2/Relu"
    attr {
      key: "T"
      value {
        type: DT_FLOAT
      }
    }
    attr {
      key: "_output_shapes"
      value {
        list {
          shape {
            dim {
              size: -1
            }
            dim {
              size: 4
            }
            dim {
              size: 4
            }
            dim {
              size: 128
            }
          }
        }
      }
    }
    attr {
      key: "data_format"
      value {
        s: "NHWC"
      }
    }
    attr {
      key: "ksize"
      value {
        list {
          i: 1
          i: 2
          i: 2
          i: 1
        }
      }
    }
    attr {
      key: "padding"
      value {
        s: "SAME"
      }
    }
    attr {
      key: "strides"
      value {
        list {
          i: 1
          i: 2
          i: 2
          i: 1
        }
      }
    }
  }
  node {
    name: "Reshape/shape"
    op: "Const"
    attr {
      key: "_output_shapes"
      value {
        list {
          shape {
            dim {
              size: 2
            }
          }
        }
      }
    }
    attr {
      key: "dtype"
      value {
        type: DT_INT32
      }
    }
    attr {
      key: "value"
      value {
        tensor {
          dtype: DT_INT32
          tensor_shape {
            dim {
              size: 2
            }
          }
          tensor_content: "\377\377\377\377\000\010\000\000"
        }
      }
    }
  }
  node {
    name: "Reshape"
    op: "Reshape"
    input: "conv2/MaxPool"
    input: "Reshape/shape"
    attr {
      key: "T"
      value {
        type: DT_FLOAT
      }
    }
    attr {
      key: "Tshape"
      value {
        type: DT_INT32
      }
    }
    attr {
      key: "_output_shapes"
      value {
        list {
          shape {
            dim {
              size: -1
            }
            dim {
              size: 2048
            }
          }
        }
      }
    }
  }
  node {
    name: "fc0/W/Initializer/random_uniform/shape"
    op: "Const"
    attr {
      key: "_class"
      value {
        list {
          s: "loc:@fc0/W"
        }
      }
    }
    attr {
      key: "_output_shapes"
      value {
        list {
          shape {
            dim {
              size: 2
            }
          }
        }
      }
    }
    attr {
      key: "dtype"
      value {
        type: DT_INT32
      }
    }
    attr {
      key: "value"
      value {
        tensor {
          dtype: DT_INT32
          tensor_shape {
            dim {
              size: 2
            }
          }
          tensor_content: "\000\010\000\000q\002\000\000"
        }
      }
    }
  }
  node {
    name: "fc0/W/Initializer/random_uniform/min"
    op: "Const"
    attr {
      key: "_class"
      value {
        list {
          s: "loc:@fc0/W"
        }
      }
    }
    attr {
      key: "_output_shapes"
      value {
        list {
          shape {
          }
        }
      }
    }
    attr {
      key: "dtype"
      value {
        type: DT_FLOAT
      }
    }
    attr {
      key: "value"
      value {
        tensor {
          dtype: DT_FLOAT
          tensor_shape {
          }
          float_val: -0.04737793654203415
        }
      }
    }
  }
  node {
    name: "fc0/W/Initializer/random_uniform/max"
    op: "Const"
    attr {
      key: "_class"
      value {
        list {
          s: "loc:@fc0/W"
        }
      }
    }
    attr {
      key: "_output_shapes"
      value {
        list {
          shape {
          }
        }
      }
    }
    attr {
      key: "dtype"
      value {
        type: DT_FLOAT
      }
    }
    attr {
      key: "value"
      value {
        tensor {
          dtype: DT_FLOAT
          tensor_shape {
          }
          float_val: 0.04737793654203415
        }
      }
    }
  }
  node {
    name: "fc0/W/Initializer/random_uniform/RandomUniform"
    op: "RandomUniform"
    input: "fc0/W/Initializer/random_uniform/shape"
    attr {
      key: "T"
      value {
        type: DT_INT32
      }
    }
    attr {
      key: "_class"
      value {
        list {
          s: "loc:@fc0/W"
        }
      }
    }
    attr {
      key: "_output_shapes"
      value {
        list {
          shape {
            dim {
              size: 2048
            }
            dim {
              size: 625
            }
          }
        }
      }
    }
    attr {
      key: "dtype"
      value {
        type: DT_FLOAT
      }
    }
    attr {
      key: "seed"
      value {
        i: 777
      }
    }
    attr {
      key: "seed2"
      value {
        i: 85
      }
    }
  }
  node {
    name: "fc0/W/Initializer/random_uniform/sub"
    op: "Sub"
    input: "fc0/W/Initializer/random_uniform/max"
    input: "fc0/W/Initializer/random_uniform/min"
    attr {
      key: "T"
      value {
        type: DT_FLOAT
      }
    }
    attr {
      key: "_class"
      value {
        list {
          s: "loc:@fc0/W"
        }
      }
    }
    attr {
      key: "_output_shapes"
      value {
        list {
          shape {
          }
        }
      }
    }
  }
  node {
    name: "fc0/W/Initializer/random_uniform/mul"
    op: "Mul"
    input: "fc0/W/Initializer/random_uniform/RandomUniform"
    input: "fc0/W/Initializer/random_uniform/sub"
    attr {
      key: "T"
      value {
        type: DT_FLOAT
      }
    }
    attr {
      key: "_class"
      value {
        list {
          s: "loc:@fc0/W"
        }
      }
    }
    attr {
      key: "_output_shapes"
      value {
        list {
          shape {
            dim {
              size: 2048
            }
            dim {
              size: 625
            }
          }
        }
      }
    }
  }
  node {
    name: "fc0/W/Initializer/random_uniform"
    op: "Add"
    input: "fc0/W/Initializer/random_uniform/mul"
    input: "fc0/W/Initializer/random_uniform/min"
    attr {
      key: "T"
      value {
        type: DT_FLOAT
      }
    }
    attr {
      key: "_class"
      value {
        list {
          s: "loc:@fc0/W"
        }
      }
    }
    attr {
      key: "_output_shapes"
      value {
        list {
          shape {
            dim {
              size: 2048
            }
            dim {
              size: 625
            }
          }
        }
      }
    }
  }
  node {
    name: "fc0/W"
    op: "VariableV2"
    attr {
      key: "_class"
      value {
        list {
          s: "loc:@fc0/W"
        }
      }
    }
    attr {
      key: "_output_shapes"
      value {
        list {
          shape {
            dim {
              size: 2048
            }
            dim {
              size: 625
            }
          }
        }
      }
    }
    attr {
      key: "container"
      value {
        s: ""
      }
    }
    attr {
      key: "dtype"
      value {
        type: DT_FLOAT
      }
    }
    attr {
      key: "shape"
      value {
        shape {
          dim {
            size: 2048
          }
          dim {
            size: 625
          }
        }
      }
    }
    attr {
      key: "shared_name"
      value {
        s: ""
      }
    }
  }
  node {
    name: "fc0/W/Assign"
    op: "Assign"
    input: "fc0/W"
    input: "fc0/W/Initializer/random_uniform"
    attr {
      key: "T"
      value {
        type: DT_FLOAT
      }
    }
    attr {
      key: "_class"
      value {
        list {
          s: "loc:@fc0/W"
        }
      }
    }
    attr {
      key: "_output_shapes"
      value {
        list {
          shape {
            dim {
              size: 2048
            }
            dim {
              size: 625
            }
          }
        }
      }
    }
    attr {
      key: "use_locking"
      value {
        b: true
      }
    }
    attr {
      key: "validate_shape"
      value {
        b: true
      }
    }
  }
  node {
    name: "fc0/W/read"
    op: "Identity"
    input: "fc0/W"
    attr {
      key: "T"
      value {
        type: DT_FLOAT
      }
    }
    attr {
      key: "_class"
      value {
        list {
          s: "loc:@fc0/W"
        }
      }
    }
    attr {
      key: "_output_shapes"
      value {
        list {
          shape {
            dim {
              size: 2048
            }
            dim {
              size: 625
            }
          }
        }
      }
    }
  }
  node {
    name: "fc0/W/Regularizer/l2_regularizer/scale"
    op: "Const"
    attr {
      key: "_class"
      value {
        list {
          s: "loc:@fc0/W"
        }
      }
    }
    attr {
      key: "_output_shapes"
      value {
        list {
          shape {
          }
        }
      }
    }
    attr {
      key: "dtype"
      value {
        type: DT_FLOAT
      }
    }
    attr {
      key: "value"
      value {
        tensor {
          dtype: DT_FLOAT
          tensor_shape {
          }
          float_val: 0.05000000074505806
        }
      }
    }
  }
  node {
    name: "fc0/W/Regularizer/l2_regularizer/L2Loss"
    op: "L2Loss"
    input: "fc0/W/read"
    attr {
      key: "T"
      value {
        type: DT_FLOAT
      }
    }
    attr {
      key: "_class"
      value {
        list {
          s: "loc:@fc0/W"
        }
      }
    }
    attr {
      key: "_output_shapes"
      value {
        list {
          shape {
          }
        }
      }
    }
  }
  node {
    name: "fc0/W/Regularizer/l2_regularizer"
    op: "Mul"
    input: "fc0/W/Regularizer/l2_regularizer/scale"
    input: "fc0/W/Regularizer/l2_regularizer/L2Loss"
    attr {
      key: "T"
      value {
        type: DT_FLOAT
      }
    }
    attr {
      key: "_class"
      value {
        list {
          s: "loc:@fc0/W"
        }
      }
    }
    attr {
      key: "_output_shapes"
      value {
        list {
          shape {
          }
        }
      }
    }
  }
  node {
    name: "fc0/random_normal/shape"
    op: "Const"
    attr {
      key: "_output_shapes"
      value {
        list {
          shape {
            dim {
              size: 1
            }
          }
        }
      }
    }
    attr {
      key: "dtype"
      value {
        type: DT_INT32
      }
    }
    attr {
      key: "value"
      value {
        tensor {
          dtype: DT_INT32
          tensor_shape {
            dim {
              size: 1
            }
          }
          int_val: 625
        }
      }
    }
  }
  node {
    name: "fc0/random_normal/mean"
    op: "Const"
    attr {
      key: "_output_shapes"
      value {
        list {
          shape {
          }
        }
      }
    }
    attr {
      key: "dtype"
      value {
        type: DT_FLOAT
      }
    }
    attr {
      key: "value"
      value {
        tensor {
          dtype: DT_FLOAT
          tensor_shape {
          }
          float_val: 0.0
        }
      }
    }
  }
  node {
    name: "fc0/random_normal/stddev"
    op: "Const"
    attr {
      key: "_output_shapes"
      value {
        list {
          shape {
          }
        }
      }
    }
    attr {
      key: "dtype"
      value {
        type: DT_FLOAT
      }
    }
    attr {
      key: "value"
      value {
        tensor {
          dtype: DT_FLOAT
          tensor_shape {
          }
          float_val: 1.0
        }
      }
    }
  }
  node {
    name: "fc0/random_normal/RandomStandardNormal"
    op: "RandomStandardNormal"
    input: "fc0/random_normal/shape"
    attr {
      key: "T"
      value {
        type: DT_INT32
      }
    }
    attr {
      key: "_output_shapes"
      value {
        list {
          shape {
            dim {
              size: 625
            }
          }
        }
      }
    }
    attr {
      key: "dtype"
      value {
        type: DT_FLOAT
      }
    }
    attr {
      key: "seed"
      value {
        i: 777
      }
    }
    attr {
      key: "seed2"
      value {
        i: 98
      }
    }
  }
  node {
    name: "fc0/random_normal/mul"
    op: "Mul"
    input: "fc0/random_normal/RandomStandardNormal"
    input: "fc0/random_normal/stddev"
    attr {
      key: "T"
      value {
        type: DT_FLOAT
      }
    }
    attr {
      key: "_output_shapes"
      value {
        list {
          shape {
            dim {
              size: 625
            }
          }
        }
      }
    }
  }
  node {
    name: "fc0/random_normal"
    op: "Add"
    input: "fc0/random_normal/mul"
    input: "fc0/random_normal/mean"
    attr {
      key: "T"
      value {
        type: DT_FLOAT
      }
    }
    attr {
      key: "_output_shapes"
      value {
        list {
          shape {
            dim {
              size: 625
            }
          }
        }
      }
    }
  }
  node {
    name: "fc0/Variable"
    op: "VariableV2"
    attr {
      key: "_output_shapes"
      value {
        list {
          shape {
            dim {
              size: 625
            }
          }
        }
      }
    }
    attr {
      key: "container"
      value {
        s: ""
      }
    }
    attr {
      key: "dtype"
      value {
        type: DT_FLOAT
      }
    }
    attr {
      key: "shape"
      value {
        shape {
          dim {
            size: 625
          }
        }
      }
    }
    attr {
      key: "shared_name"
      value {
        s: ""
      }
    }
  }
  node {
    name: "fc0/Variable/Assign"
    op: "Assign"
    input: "fc0/Variable"
    input: "fc0/random_normal"
    attr {
      key: "T"
      value {
        type: DT_FLOAT
      }
    }
    attr {
      key: "_class"
      value {
        list {
          s: "loc:@fc0/Variable"
        }
      }
    }
    attr {
      key: "_output_shapes"
      value {
        list {
          shape {
            dim {
              size: 625
            }
          }
        }
      }
    }
    attr {
      key: "use_locking"
      value {
        b: true
      }
    }
    attr {
      key: "validate_shape"
      value {
        b: true
      }
    }
  }
  node {
    name: "fc0/Variable/read"
    op: "Identity"
    input: "fc0/Variable"
    attr {
      key: "T"
      value {
        type: DT_FLOAT
      }
    }
    attr {
      key: "_class"
      value {
        list {
          s: "loc:@fc0/Variable"
        }
      }
    }
    attr {
      key: "_output_shapes"
      value {
        list {
          shape {
            dim {
              size: 625
            }
          }
        }
      }
    }
  }
  node {
    name: "fc0/MatMul"
    op: "MatMul"
    input: "Reshape"
    input: "fc0/W/read"
    attr {
      key: "T"
      value {
        type: DT_FLOAT
      }
    }
    attr {
      key: "_output_shapes"
      value {
        list {
          shape {
            dim {
              size: -1
            }
            dim {
              size: 625
            }
          }
        }
      }
    }
    attr {
      key: "transpose_a"
      value {
        b: false
      }
    }
    attr {
      key: "transpose_b"
      value {
        b: false
      }
    }
  }
  node {
    name: "fc0/add"
    op: "Add"
    input: "fc0/MatMul"
    input: "fc0/Variable/read"
    attr {
      key: "T"
      value {
        type: DT_FLOAT
      }
    }
    attr {
      key: "_output_shapes"
      value {
        list {
          shape {
            dim {
              size: -1
            }
            dim {
              size: 625
            }
          }
        }
      }
    }
  }
  node {
    name: "fc0/Relu"
    op: "Relu"
    input: "fc0/add"
    attr {
      key: "T"
      value {
        type: DT_FLOAT
      }
    }
    attr {
      key: "_output_shapes"
      value {
        list {
          shape {
            dim {
              size: -1
            }
            dim {
              size: 625
            }
          }
        }
      }
    }
  }
  node {
    name: "fc1/W/Initializer/random_uniform/shape"
    op: "Const"
    attr {
      key: "_class"
      value {
        list {
          s: "loc:@fc1/W"
        }
      }
    }
    attr {
      key: "_output_shapes"
      value {
        list {
          shape {
            dim {
              size: 2
            }
          }
        }
      }
    }
    attr {
      key: "dtype"
      value {
        type: DT_INT32
      }
    }
    attr {
      key: "value"
      value {
        tensor {
          dtype: DT_INT32
          tensor_shape {
            dim {
              size: 2
            }
          }
          tensor_content: "q\002\000\000\n\000\000\000"
        }
      }
    }
  }
  node {
    name: "fc1/W/Initializer/random_uniform/min"
    op: "Const"
    attr {
      key: "_class"
      value {
        list {
          s: "loc:@fc1/W"
        }
      }
    }
    attr {
      key: "_output_shapes"
      value {
        list {
          shape {
          }
        }
      }
    }
    attr {
      key: "dtype"
      value {
        type: DT_FLOAT
      }
    }
    attr {
      key: "value"
      value {
        tensor {
          dtype: DT_FLOAT
          tensor_shape {
          }
          float_val: -0.0972050353884697
        }
      }
    }
  }
  node {
    name: "fc1/W/Initializer/random_uniform/max"
    op: "Const"
    attr {
      key: "_class"
      value {
        list {
          s: "loc:@fc1/W"
        }
      }
    }
    attr {
      key: "_output_shapes"
      value {
        list {
          shape {
          }
        }
      }
    }
    attr {
      key: "dtype"
      value {
        type: DT_FLOAT
      }
    }
    attr {
      key: "value"
      value {
        tensor {
          dtype: DT_FLOAT
          tensor_shape {
          }
          float_val: 0.0972050353884697
        }
      }
    }
  }
  node {
    name: "fc1/W/Initializer/random_uniform/RandomUniform"
    op: "RandomUniform"
    input: "fc1/W/Initializer/random_uniform/shape"
    attr {
      key: "T"
      value {
        type: DT_INT32
      }
    }
    attr {
      key: "_class"
      value {
        list {
          s: "loc:@fc1/W"
        }
      }
    }
    attr {
      key: "_output_shapes"
      value {
        list {
          shape {
            dim {
              size: 625
            }
            dim {
              size: 10
            }
          }
        }
      }
    }
    attr {
      key: "dtype"
      value {
        type: DT_FLOAT
      }
    }
    attr {
      key: "seed"
      value {
        i: 777
      }
    }
    attr {
      key: "seed2"
      value {
        i: 110
      }
    }
  }
  node {
    name: "fc1/W/Initializer/random_uniform/sub"
    op: "Sub"
    input: "fc1/W/Initializer/random_uniform/max"
    input: "fc1/W/Initializer/random_uniform/min"
    attr {
      key: "T"
      value {
        type: DT_FLOAT
      }
    }
    attr {
      key: "_class"
      value {
        list {
          s: "loc:@fc1/W"
        }
      }
    }
    attr {
      key: "_output_shapes"
      value {
        list {
          shape {
          }
        }
      }
    }
  }
  node {
    name: "fc1/W/Initializer/random_uniform/mul"
    op: "Mul"
    input: "fc1/W/Initializer/random_uniform/RandomUniform"
    input: "fc1/W/Initializer/random_uniform/sub"
    attr {
      key: "T"
      value {
        type: DT_FLOAT
      }
    }
    attr {
      key: "_class"
      value {
        list {
          s: "loc:@fc1/W"
        }
      }
    }
    attr {
      key: "_output_shapes"
      value {
        list {
          shape {
            dim {
              size: 625
            }
            dim {
              size: 10
            }
          }
        }
      }
    }
  }
  node {
    name: "fc1/W/Initializer/random_uniform"
    op: "Add"
    input: "fc1/W/Initializer/random_uniform/mul"
    input: "fc1/W/Initializer/random_uniform/min"
    attr {
      key: "T"
      value {
        type: DT_FLOAT
      }
    }
    attr {
      key: "_class"
      value {
        list {
          s: "loc:@fc1/W"
        }
      }
    }
    attr {
      key: "_output_shapes"
      value {
        list {
          shape {
            dim {
              size: 625
            }
            dim {
              size: 10
            }
          }
        }
      }
    }
  }
  node {
    name: "fc1/W"
    op: "VariableV2"
    attr {
      key: "_class"
      value {
        list {
          s: "loc:@fc1/W"
        }
      }
    }
    attr {
      key: "_output_shapes"
      value {
        list {
          shape {
            dim {
              size: 625
            }
            dim {
              size: 10
            }
          }
        }
      }
    }
    attr {
      key: "container"
      value {
        s: ""
      }
    }
    attr {
      key: "dtype"
      value {
        type: DT_FLOAT
      }
    }
    attr {
      key: "shape"
      value {
        shape {
          dim {
            size: 625
          }
          dim {
            size: 10
          }
        }
      }
    }
    attr {
      key: "shared_name"
      value {
        s: ""
      }
    }
  }
  node {
    name: "fc1/W/Assign"
    op: "Assign"
    input: "fc1/W"
    input: "fc1/W/Initializer/random_uniform"
    attr {
      key: "T"
      value {
        type: DT_FLOAT
      }
    }
    attr {
      key: "_class"
      value {
        list {
          s: "loc:@fc1/W"
        }
      }
    }
    attr {
      key: "_output_shapes"
      value {
        list {
          shape {
            dim {
              size: 625
            }
            dim {
              size: 10
            }
          }
        }
      }
    }
    attr {
      key: "use_locking"
      value {
        b: true
      }
    }
    attr {
      key: "validate_shape"
      value {
        b: true
      }
    }
  }
  node {
    name: "fc1/W/read"
    op: "Identity"
    input: "fc1/W"
    attr {
      key: "T"
      value {
        type: DT_FLOAT
      }
    }
    attr {
      key: "_class"
      value {
        list {
          s: "loc:@fc1/W"
        }
      }
    }
    attr {
      key: "_output_shapes"
      value {
        list {
          shape {
            dim {
              size: 625
            }
            dim {
              size: 10
            }
          }
        }
      }
    }
  }
  node {
    name: "fc1/W/Regularizer/l2_regularizer/scale"
    op: "Const"
    attr {
      key: "_class"
      value {
        list {
          s: "loc:@fc1/W"
        }
      }
    }
    attr {
      key: "_output_shapes"
      value {
        list {
          shape {
          }
        }
      }
    }
    attr {
      key: "dtype"
      value {
        type: DT_FLOAT
      }
    }
    attr {
      key: "value"
      value {
        tensor {
          dtype: DT_FLOAT
          tensor_shape {
          }
          float_val: 0.05000000074505806
        }
      }
    }
  }
  node {
    name: "fc1/W/Regularizer/l2_regularizer/L2Loss"
    op: "L2Loss"
    input: "fc1/W/read"
    attr {
      key: "T"
      value {
        type: DT_FLOAT
      }
    }
    attr {
      key: "_class"
      value {
        list {
          s: "loc:@fc1/W"
        }
      }
    }
    attr {
      key: "_output_shapes"
      value {
        list {
          shape {
          }
        }
      }
    }
  }
  node {
    name: "fc1/W/Regularizer/l2_regularizer"
    op: "Mul"
    input: "fc1/W/Regularizer/l2_regularizer/scale"
    input: "fc1/W/Regularizer/l2_regularizer/L2Loss"
    attr {
      key: "T"
      value {
        type: DT_FLOAT
      }
    }
    attr {
      key: "_class"
      value {
        list {
          s: "loc:@fc1/W"
        }
      }
    }
    attr {
      key: "_output_shapes"
      value {
        list {
          shape {
          }
        }
      }
    }
  }
  node {
    name: "fc1/random_normal/shape"
    op: "Const"
    attr {
      key: "_output_shapes"
      value {
        list {
          shape {
            dim {
              size: 1
            }
          }
        }
      }
    }
    attr {
      key: "dtype"
      value {
        type: DT_INT32
      }
    }
    attr {
      key: "value"
      value {
        tensor {
          dtype: DT_INT32
          tensor_shape {
            dim {
              size: 1
            }
          }
          int_val: 10
        }
      }
    }
  }
  node {
    name: "fc1/random_normal/mean"
    op: "Const"
    attr {
      key: "_output_shapes"
      value {
        list {
          shape {
          }
        }
      }
    }
    attr {
      key: "dtype"
      value {
        type: DT_FLOAT
      }
    }
    attr {
      key: "value"
      value {
        tensor {
          dtype: DT_FLOAT
          tensor_shape {
          }
          float_val: 0.0
        }
      }
    }
  }
  node {
    name: "fc1/random_normal/stddev"
    op: "Const"
    attr {
      key: "_output_shapes"
      value {
        list {
          shape {
          }
        }
      }
    }
    attr {
      key: "dtype"
      value {
        type: DT_FLOAT
      }
    }
    attr {
      key: "value"
      value {
        tensor {
          dtype: DT_FLOAT
          tensor_shape {
          }
          float_val: 1.0
        }
      }
    }
  }
  node {
    name: "fc1/random_normal/RandomStandardNormal"
    op: "RandomStandardNormal"
    input: "fc1/random_normal/shape"
    attr {
      key: "T"
      value {
        type: DT_INT32
      }
    }
    attr {
      key: "_output_shapes"
      value {
        list {
          shape {
            dim {
              size: 10
            }
          }
        }
      }
    }
    attr {
      key: "dtype"
      value {
        type: DT_FLOAT
      }
    }
    attr {
      key: "seed"
      value {
        i: 777
      }
    }
    attr {
      key: "seed2"
      value {
        i: 123
      }
    }
  }
  node {
    name: "fc1/random_normal/mul"
    op: "Mul"
    input: "fc1/random_normal/RandomStandardNormal"
    input: "fc1/random_normal/stddev"
    attr {
      key: "T"
      value {
        type: DT_FLOAT
      }
    }
    attr {
      key: "_output_shapes"
      value {
        list {
          shape {
            dim {
              size: 10
            }
          }
        }
      }
    }
  }
  node {
    name: "fc1/random_normal"
    op: "Add"
    input: "fc1/random_normal/mul"
    input: "fc1/random_normal/mean"
    attr {
      key: "T"
      value {
        type: DT_FLOAT
      }
    }
    attr {
      key: "_output_shapes"
      value {
        list {
          shape {
            dim {
              size: 10
            }
          }
        }
      }
    }
  }
  node {
    name: "fc1/Variable"
    op: "VariableV2"
    attr {
      key: "_output_shapes"
      value {
        list {
          shape {
            dim {
              size: 10
            }
          }
        }
      }
    }
    attr {
      key: "container"
      value {
        s: ""
      }
    }
    attr {
      key: "dtype"
      value {
        type: DT_FLOAT
      }
    }
    attr {
      key: "shape"
      value {
        shape {
          dim {
            size: 10
          }
        }
      }
    }
    attr {
      key: "shared_name"
      value {
        s: ""
      }
    }
  }
  node {
    name: "fc1/Variable/Assign"
    op: "Assign"
    input: "fc1/Variable"
    input: "fc1/random_normal"
    attr {
      key: "T"
      value {
        type: DT_FLOAT
      }
    }
    attr {
      key: "_class"
      value {
        list {
          s: "loc:@fc1/Variable"
        }
      }
    }
    attr {
      key: "_output_shapes"
      value {
        list {
          shape {
            dim {
              size: 10
            }
          }
        }
      }
    }
    attr {
      key: "use_locking"
      value {
        b: true
      }
    }
    attr {
      key: "validate_shape"
      value {
        b: true
      }
    }
  }
  node {
    name: "fc1/Variable/read"
    op: "Identity"
    input: "fc1/Variable"
    attr {
      key: "T"
      value {
        type: DT_FLOAT
      }
    }
    attr {
      key: "_class"
      value {
        list {
          s: "loc:@fc1/Variable"
        }
      }
    }
    attr {
      key: "_output_shapes"
      value {
        list {
          shape {
            dim {
              size: 10
            }
          }
        }
      }
    }
  }
  node {
    name: "fc1/MatMul"
    op: "MatMul"
    input: "fc0/Relu"
    input: "fc1/W/read"
    attr {
      key: "T"
      value {
        type: DT_FLOAT
      }
    }
    attr {
      key: "_output_shapes"
      value {
        list {
          shape {
            dim {
              size: -1
            }
            dim {
              size: 10
            }
          }
        }
      }
    }
    attr {
      key: "transpose_a"
      value {
        b: false
      }
    }
    attr {
      key: "transpose_b"
      value {
        b: false
      }
    }
  }
  node {
    name: "fc1/add"
    op: "Add"
    input: "fc1/MatMul"
    input: "fc1/Variable/read"
    attr {
      key: "T"
      value {
        type: DT_FLOAT
      }
    }
    attr {
      key: "_output_shapes"
      value {
        list {
          shape {
            dim {
              size: -1
            }
            dim {
              size: 10
            }
          }
        }
      }
    }
  }
  node {
    name: "hypothesis"
    op: "Identity"
    input: "fc1/add"
    attr {
      key: "T"
      value {
        type: DT_FLOAT
      }
    }
    attr {
      key: "_output_shapes"
      value {
        list {
          shape {
            dim {
              size: -1
            }
            dim {
              size: 10
            }
          }
        }
      }
    }
  }
  node {
    name: "Rank"
    op: "Const"
    attr {
      key: "_output_shapes"
      value {
        list {
          shape {
          }
        }
      }
    }
    attr {
      key: "dtype"
      value {
        type: DT_INT32
      }
    }
    attr {
      key: "value"
      value {
        tensor {
          dtype: DT_INT32
          tensor_shape {
          }
          int_val: 2
        }
      }
    }
  }
  node {
    name: "Shape"
    op: "Shape"
    input: "hypothesis"
    attr {
      key: "T"
      value {
        type: DT_FLOAT
      }
    }
    attr {
      key: "_output_shapes"
      value {
        list {
          shape {
            dim {
              size: 2
            }
          }
        }
      }
    }
    attr {
      key: "out_type"
      value {
        type: DT_INT32
      }
    }
  }
  node {
    name: "Rank_1"
    op: "Const"
    attr {
      key: "_output_shapes"
      value {
        list {
          shape {
          }
        }
      }
    }
    attr {
      key: "dtype"
      value {
        type: DT_INT32
      }
    }
    attr {
      key: "value"
      value {
        tensor {
          dtype: DT_INT32
          tensor_shape {
          }
          int_val: 2
        }
      }
    }
  }
  node {
    name: "Shape_1"
    op: "Shape"
    input: "hypothesis"
    attr {
      key: "T"
      value {
        type: DT_FLOAT
      }
    }
    attr {
      key: "_output_shapes"
      value {
        list {
          shape {
            dim {
              size: 2
            }
          }
        }
      }
    }
    attr {
      key: "out_type"
      value {
        type: DT_INT32
      }
    }
  }
  node {
    name: "Sub/y"
    op: "Const"
    attr {
      key: "_output_shapes"
      value {
        list {
          shape {
          }
        }
      }
    }
    attr {
      key: "dtype"
      value {
        type: DT_INT32
      }
    }
    attr {
      key: "value"
      value {
        tensor {
          dtype: DT_INT32
          tensor_shape {
          }
          int_val: 1
        }
      }
    }
  }
  node {
    name: "Sub"
    op: "Sub"
    input: "Rank_1"
    input: "Sub/y"
    attr {
      key: "T"
      value {
        type: DT_INT32
      }
    }
    attr {
      key: "_output_shapes"
      value {
        list {
          shape {
          }
        }
      }
    }
  }
  node {
    name: "Slice/begin"
    op: "Pack"
    input: "Sub"
    attr {
      key: "N"
      value {
        i: 1
      }
    }
    attr {
      key: "T"
      value {
        type: DT_INT32
      }
    }
    attr {
      key: "_output_shapes"
      value {
        list {
          shape {
            dim {
              size: 1
            }
          }
        }
      }
    }
    attr {
      key: "axis"
      value {
        i: 0
      }
    }
  }
  node {
    name: "Slice/size"
    op: "Const"
    attr {
      key: "_output_shapes"
      value {
        list {
          shape {
            dim {
              size: 1
            }
          }
        }
      }
    }
    attr {
      key: "dtype"
      value {
        type: DT_INT32
      }
    }
    attr {
      key: "value"
      value {
        tensor {
          dtype: DT_INT32
          tensor_shape {
            dim {
              size: 1
            }
          }
          int_val: 1
        }
      }
    }
  }
  node {
    name: "Slice"
    op: "Slice"
    input: "Shape_1"
    input: "Slice/begin"
    input: "Slice/size"
    attr {
      key: "Index"
      value {
        type: DT_INT32
      }
    }
    attr {
      key: "T"
      value {
        type: DT_INT32
      }
    }
    attr {
      key: "_output_shapes"
      value {
        list {
          shape {
            dim {
              size: 1
            }
          }
        }
      }
    }
  }
  node {
    name: "concat/values_0"
    op: "Const"
    attr {
      key: "_output_shapes"
      value {
        list {
          shape {
            dim {
              size: 1
            }
          }
        }
      }
    }
    attr {
      key: "dtype"
      value {
        type: DT_INT32
      }
    }
    attr {
      key: "value"
      value {
        tensor {
          dtype: DT_INT32
          tensor_shape {
            dim {
              size: 1
            }
          }
          int_val: -1
        }
      }
    }
  }
  node {
    name: "concat/axis"
    op: "Const"
    attr {
      key: "_output_shapes"
      value {
        list {
          shape {
          }
        }
      }
    }
    attr {
      key: "dtype"
      value {
        type: DT_INT32
      }
    }
    attr {
      key: "value"
      value {
        tensor {
          dtype: DT_INT32
          tensor_shape {
          }
          int_val: 0
        }
      }
    }
  }
  node {
    name: "concat"
    op: "ConcatV2"
    input: "concat/values_0"
    input: "Slice"
    input: "concat/axis"
    attr {
      key: "N"
      value {
        i: 2
      }
    }
    attr {
      key: "T"
      value {
        type: DT_INT32
      }
    }
    attr {
      key: "Tidx"
      value {
        type: DT_INT32
      }
    }
    attr {
      key: "_output_shapes"
      value {
        list {
          shape {
            dim {
              size: 2
            }
          }
        }
      }
    }
  }
  node {
    name: "Reshape_1"
    op: "Reshape"
    input: "hypothesis"
    input: "concat"
    attr {
      key: "T"
      value {
        type: DT_FLOAT
      }
    }
    attr {
      key: "Tshape"
      value {
        type: DT_INT32
      }
    }
    attr {
      key: "_output_shapes"
      value {
        list {
          shape {
            dim {
              size: -1
            }
            dim {
              size: -1
            }
          }
        }
      }
    }
  }
  node {
    name: "Rank_2"
    op: "Const"
    attr {
      key: "_output_shapes"
      value {
        list {
          shape {
          }
        }
      }
    }
    attr {
      key: "dtype"
      value {
        type: DT_INT32
      }
    }
    attr {
      key: "value"
      value {
        tensor {
          dtype: DT_INT32
          tensor_shape {
          }
          int_val: 2
        }
      }
    }
  }
  node {
    name: "Shape_2"
    op: "Shape"
    input: "label"
    attr {
      key: "T"
      value {
        type: DT_FLOAT
      }
    }
    attr {
      key: "_output_shapes"
      value {
        list {
          shape {
            dim {
              size: 2
            }
          }
        }
      }
    }
    attr {
      key: "out_type"
      value {
        type: DT_INT32
      }
    }
  }
  node {
    name: "Sub_1/y"
    op: "Const"
    attr {
      key: "_output_shapes"
      value {
        list {
          shape {
          }
        }
      }
    }
    attr {
      key: "dtype"
      value {
        type: DT_INT32
      }
    }
    attr {
      key: "value"
      value {
        tensor {
          dtype: DT_INT32
          tensor_shape {
          }
          int_val: 1
        }
      }
    }
  }
  node {
    name: "Sub_1"
    op: "Sub"
    input: "Rank_2"
    input: "Sub_1/y"
    attr {
      key: "T"
      value {
        type: DT_INT32
      }
    }
    attr {
      key: "_output_shapes"
      value {
        list {
          shape {
          }
        }
      }
    }
  }
  node {
    name: "Slice_1/begin"
    op: "Pack"
    input: "Sub_1"
    attr {
      key: "N"
      value {
        i: 1
      }
    }
    attr {
      key: "T"
      value {
        type: DT_INT32
      }
    }
    attr {
      key: "_output_shapes"
      value {
        list {
          shape {
            dim {
              size: 1
            }
          }
        }
      }
    }
    attr {
      key: "axis"
      value {
        i: 0
      }
    }
  }
  node {
    name: "Slice_1/size"
    op: "Const"
    attr {
      key: "_output_shapes"
      value {
        list {
          shape {
            dim {
              size: 1
            }
          }
        }
      }
    }
    attr {
      key: "dtype"
      value {
        type: DT_INT32
      }
    }
    attr {
      key: "value"
      value {
        tensor {
          dtype: DT_INT32
          tensor_shape {
            dim {
              size: 1
            }
          }
          int_val: 1
        }
      }
    }
  }
  node {
    name: "Slice_1"
    op: "Slice"
    input: "Shape_2"
    input: "Slice_1/begin"
    input: "Slice_1/size"
    attr {
      key: "Index"
      value {
        type: DT_INT32
      }
    }
    attr {
      key: "T"
      value {
        type: DT_INT32
      }
    }
    attr {
      key: "_output_shapes"
      value {
        list {
          shape {
            dim {
              size: 1
            }
          }
        }
      }
    }
  }
  node {
    name: "concat_1/values_0"
    op: "Const"
    attr {
      key: "_output_shapes"
      value {
        list {
          shape {
            dim {
              size: 1
            }
          }
        }
      }
    }
    attr {
      key: "dtype"
      value {
        type: DT_INT32
      }
    }
    attr {
      key: "value"
      value {
        tensor {
          dtype: DT_INT32
          tensor_shape {
            dim {
              size: 1
            }
          }
          int_val: -1
        }
      }
    }
  }
  node {
    name: "concat_1/axis"
    op: "Const"
    attr {
      key: "_output_shapes"
      value {
        list {
          shape {
          }
        }
      }
    }
    attr {
      key: "dtype"
      value {
        type: DT_INT32
      }
    }
    attr {
      key: "value"
      value {
        tensor {
          dtype: DT_INT32
          tensor_shape {
          }
          int_val: 0
        }
      }
    }
  }
  node {
    name: "concat_1"
    op: "ConcatV2"
    input: "concat_1/values_0"
    input: "Slice_1"
    input: "concat_1/axis"
    attr {
      key: "N"
      value {
        i: 2
      }
    }
    attr {
      key: "T"
      value {
        type: DT_INT32
      }
    }
    attr {
      key: "Tidx"
      value {
        type: DT_INT32
      }
    }
    attr {
      key: "_output_shapes"
      value {
        list {
          shape {
            dim {
              size: 2
            }
          }
        }
      }
    }
  }
  node {
    name: "Reshape_2"
    op: "Reshape"
    input: "label"
    input: "concat_1"
    attr {
      key: "T"
      value {
        type: DT_FLOAT
      }
    }
    attr {
      key: "Tshape"
      value {
        type: DT_INT32
      }
    }
    attr {
      key: "_output_shapes"
      value {
        list {
          shape {
            dim {
              size: -1
            }
            dim {
              size: -1
            }
          }
        }
      }
    }
  }
  node {
    name: "SoftmaxCrossEntropyWithLogits"
    op: "SoftmaxCrossEntropyWithLogits"
    input: "Reshape_1"
    input: "Reshape_2"
    attr {
      key: "T"
      value {
        type: DT_FLOAT
      }
    }
    attr {
      key: "_output_shapes"
      value {
        list {
          shape {
            dim {
              size: -1
            }
          }
          shape {
            dim {
              size: -1
            }
            dim {
              size: -1
            }
          }
        }
      }
    }
  }
  node {
    name: "Sub_2/y"
    op: "Const"
    attr {
      key: "_output_shapes"
      value {
        list {
          shape {
          }
        }
      }
    }
    attr {
      key: "dtype"
      value {
        type: DT_INT32
      }
    }
    attr {
      key: "value"
      value {
        tensor {
          dtype: DT_INT32
          tensor_shape {
          }
          int_val: 1
        }
      }
    }
  }
  node {
    name: "Sub_2"
    op: "Sub"
    input: "Rank"
    input: "Sub_2/y"
    attr {
      key: "T"
      value {
        type: DT_INT32
      }
    }
    attr {
      key: "_output_shapes"
      value {
        list {
          shape {
          }
        }
      }
    }
  }
  node {
    name: "Slice_2/begin"
    op: "Const"
    attr {
      key: "_output_shapes"
      value {
        list {
          shape {
            dim {
              size: 1
            }
          }
        }
      }
    }
    attr {
      key: "dtype"
      value {
        type: DT_INT32
      }
    }
    attr {
      key: "value"
      value {
        tensor {
          dtype: DT_INT32
          tensor_shape {
            dim {
              size: 1
            }
          }
          int_val: 0
        }
      }
    }
  }
  node {
    name: "Slice_2/size"
    op: "Pack"
    input: "Sub_2"
    attr {
      key: "N"
      value {
        i: 1
      }
    }
    attr {
      key: "T"
      value {
        type: DT_INT32
      }
    }
    attr {
      key: "_output_shapes"
      value {
        list {
          shape {
            dim {
              size: 1
            }
          }
        }
      }
    }
    attr {
      key: "axis"
      value {
        i: 0
      }
    }
  }
  node {
    name: "Slice_2"
    op: "Slice"
    input: "Shape"
    input: "Slice_2/begin"
    input: "Slice_2/size"
    attr {
      key: "Index"
      value {
        type: DT_INT32
      }
    }
    attr {
      key: "T"
      value {
        type: DT_INT32
      }
    }
    attr {
      key: "_output_shapes"
      value {
        list {
          shape {
            dim {
              size: -1
            }
          }
        }
      }
    }
  }
  node {
    name: "Reshape_3"
    op: "Reshape"
    input: "SoftmaxCrossEntropyWithLogits"
    input: "Slice_2"
    attr {
      key: "T"
      value {
        type: DT_FLOAT
      }
    }
    attr {
      key: "Tshape"
      value {
        type: DT_INT32
      }
    }
    attr {
      key: "_output_shapes"
      value {
        list {
          shape {
            dim {
              size: -1
            }
          }
        }
      }
    }
  }
  node {
    name: "Const"
    op: "Const"
    attr {
      key: "_output_shapes"
      value {
        list {
          shape {
            dim {
              size: 1
            }
          }
        }
      }
    }
    attr {
      key: "dtype"
      value {
        type: DT_INT32
      }
    }
    attr {
      key: "value"
      value {
        tensor {
          dtype: DT_INT32
          tensor_shape {
            dim {
              size: 1
            }
          }
          int_val: 0
        }
      }
    }
  }
  node {
    name: "Mean"
    op: "Mean"
    input: "Reshape_3"
    input: "Const"
    attr {
      key: "T"
      value {
        type: DT_FLOAT
      }
    }
    attr {
      key: "Tidx"
      value {
        type: DT_INT32
      }
    }
    attr {
      key: "_output_shapes"
      value {
        list {
          shape {
          }
        }
      }
    }
    attr {
      key: "keep_dims"
      value {
        b: false
      }
    }
  }
  node {
    name: "gradients/Shape"
    op: "Const"
    attr {
      key: "_output_shapes"
      value {
        list {
          shape {
            dim {
            }
          }
        }
      }
    }
    attr {
      key: "dtype"
      value {
        type: DT_INT32
      }
    }
    attr {
      key: "value"
      value {
        tensor {
          dtype: DT_INT32
          tensor_shape {
            dim {
            }
          }
        }
      }
    }
  }
  node {
    name: "gradients/Const"
    op: "Const"
    attr {
      key: "_output_shapes"
      value {
        list {
          shape {
          }
        }
      }
    }
    attr {
      key: "dtype"
      value {
        type: DT_FLOAT
      }
    }
    attr {
      key: "value"
      value {
        tensor {
          dtype: DT_FLOAT
          tensor_shape {
          }
          float_val: 1.0
        }
      }
    }
  }
  node {
    name: "gradients/Fill"
    op: "Fill"
    input: "gradients/Shape"
    input: "gradients/Const"
    attr {
      key: "T"
      value {
        type: DT_FLOAT
      }
    }
    attr {
      key: "_output_shapes"
      value {
        list {
          shape {
          }
        }
      }
    }
  }
  node {
    name: "gradients/Mean_grad/Reshape/shape"
    op: "Const"
    attr {
      key: "_output_shapes"
      value {
        list {
          shape {
            dim {
              size: 1
            }
          }
        }
      }
    }
    attr {
      key: "dtype"
      value {
        type: DT_INT32
      }
    }
    attr {
      key: "value"
      value {
        tensor {
          dtype: DT_INT32
          tensor_shape {
            dim {
              size: 1
            }
          }
          int_val: 1
        }
      }
    }
  }
  node {
    name: "gradients/Mean_grad/Reshape"
    op: "Reshape"
    input: "gradients/Fill"
    input: "gradients/Mean_grad/Reshape/shape"
    attr {
      key: "T"
      value {
        type: DT_FLOAT
      }
    }
    attr {
      key: "Tshape"
      value {
        type: DT_INT32
      }
    }
    attr {
      key: "_output_shapes"
      value {
        list {
          shape {
            dim {
              size: 1
            }
          }
        }
      }
    }
  }
  node {
    name: "gradients/Mean_grad/Shape"
    op: "Shape"
    input: "Reshape_3"
    attr {
      key: "T"
      value {
        type: DT_FLOAT
      }
    }
    attr {
      key: "_output_shapes"
      value {
        list {
          shape {
            dim {
              size: 1
            }
          }
        }
      }
    }
    attr {
      key: "out_type"
      value {
        type: DT_INT32
      }
    }
  }
  node {
    name: "gradients/Mean_grad/Tile"
    op: "Tile"
    input: "gradients/Mean_grad/Reshape"
    input: "gradients/Mean_grad/Shape"
    attr {
      key: "T"
      value {
        type: DT_FLOAT
      }
    }
    attr {
      key: "Tmultiples"
      value {
        type: DT_INT32
      }
    }
    attr {
      key: "_output_shapes"
      value {
        list {
          shape {
            dim {
              size: -1
            }
          }
        }
      }
    }
  }
  node {
    name: "gradients/Mean_grad/Shape_1"
    op: "Shape"
    input: "Reshape_3"
    attr {
      key: "T"
      value {
        type: DT_FLOAT
      }
    }
    attr {
      key: "_output_shapes"
      value {
        list {
          shape {
            dim {
              size: 1
            }
          }
        }
      }
    }
    attr {
      key: "out_type"
      value {
        type: DT_INT32
      }
    }
  }
  node {
    name: "gradients/Mean_grad/Shape_2"
    op: "Const"
    attr {
      key: "_output_shapes"
      value {
        list {
          shape {
            dim {
            }
          }
        }
      }
    }
    attr {
      key: "dtype"
      value {
        type: DT_INT32
      }
    }
    attr {
      key: "value"
      value {
        tensor {
          dtype: DT_INT32
          tensor_shape {
            dim {
            }
          }
        }
      }
    }
  }
  node {
    name: "gradients/Mean_grad/Const"
    op: "Const"
    attr {
      key: "_class"
      value {
        list {
          s: "loc:@gradients/Mean_grad/Shape_1"
        }
      }
    }
    attr {
      key: "_output_shapes"
      value {
        list {
          shape {
            dim {
              size: 1
            }
          }
        }
      }
    }
    attr {
      key: "dtype"
      value {
        type: DT_INT32
      }
    }
    attr {
      key: "value"
      value {
        tensor {
          dtype: DT_INT32
          tensor_shape {
            dim {
              size: 1
            }
          }
          int_val: 0
        }
      }
    }
  }
  node {
    name: "gradients/Mean_grad/Prod"
    op: "Prod"
    input: "gradients/Mean_grad/Shape_1"
    input: "gradients/Mean_grad/Const"
    attr {
      key: "T"
      value {
        type: DT_INT32
      }
    }
    attr {
      key: "Tidx"
      value {
        type: DT_INT32
      }
    }
    attr {
      key: "_class"
      value {
        list {
          s: "loc:@gradients/Mean_grad/Shape_1"
        }
      }
    }
    attr {
      key: "_output_shapes"
      value {
        list {
          shape {
          }
        }
      }
    }
    attr {
      key: "keep_dims"
      value {
        b: false
      }
    }
  }
  node {
    name: "gradients/Mean_grad/Const_1"
    op: "Const"
    attr {
      key: "_class"
      value {
        list {
          s: "loc:@gradients/Mean_grad/Shape_1"
        }
      }
    }
    attr {
      key: "_output_shapes"
      value {
        list {
          shape {
            dim {
              size: 1
            }
          }
        }
      }
    }
    attr {
      key: "dtype"
      value {
        type: DT_INT32
      }
    }
    attr {
      key: "value"
      value {
        tensor {
          dtype: DT_INT32
          tensor_shape {
            dim {
              size: 1
            }
          }
          int_val: 0
        }
      }
    }
  }
  node {
    name: "gradients/Mean_grad/Prod_1"
    op: "Prod"
    input: "gradients/Mean_grad/Shape_2"
    input: "gradients/Mean_grad/Const_1"
    attr {
      key: "T"
      value {
        type: DT_INT32
      }
    }
    attr {
      key: "Tidx"
      value {
        type: DT_INT32
      }
    }
    attr {
      key: "_class"
      value {
        list {
          s: "loc:@gradients/Mean_grad/Shape_1"
        }
      }
    }
    attr {
      key: "_output_shapes"
      value {
        list {
          shape {
          }
        }
      }
    }
    attr {
      key: "keep_dims"
      value {
        b: false
      }
    }
  }
  node {
    name: "gradients/Mean_grad/Maximum/y"
    op: "Const"
    attr {
      key: "_class"
      value {
        list {
          s: "loc:@gradients/Mean_grad/Shape_1"
        }
      }
    }
    attr {
      key: "_output_shapes"
      value {
        list {
          shape {
          }
        }
      }
    }
    attr {
      key: "dtype"
      value {
        type: DT_INT32
      }
    }
    attr {
      key: "value"
      value {
        tensor {
          dtype: DT_INT32
          tensor_shape {
          }
          int_val: 1
        }
      }
    }
  }
  node {
    name: "gradients/Mean_grad/Maximum"
    op: "Maximum"
    input: "gradients/Mean_grad/Prod_1"
    input: "gradients/Mean_grad/Maximum/y"
    attr {
      key: "T"
      value {
        type: DT_INT32
      }
    }
    attr {
      key: "_class"
      value {
        list {
          s: "loc:@gradients/Mean_grad/Shape_1"
        }
      }
    }
    attr {
      key: "_output_shapes"
      value {
        list {
          shape {
          }
        }
      }
    }
  }
  node {
    name: "gradients/Mean_grad/floordiv"
    op: "FloorDiv"
    input: "gradients/Mean_grad/Prod"
    input: "gradients/Mean_grad/Maximum"
    attr {
      key: "T"
      value {
        type: DT_INT32
      }
    }
    attr {
      key: "_class"
      value {
        list {
          s: "loc:@gradients/Mean_grad/Shape_1"
        }
      }
    }
    attr {
      key: "_output_shapes"
      value {
        list {
          shape {
          }
        }
      }
    }
  }
  node {
    name: "gradients/Mean_grad/Cast"
    op: "Cast"
    input: "gradients/Mean_grad/floordiv"
    attr {
      key: "DstT"
      value {
        type: DT_FLOAT
      }
    }
    attr {
      key: "SrcT"
      value {
        type: DT_INT32
      }
    }
    attr {
      key: "_output_shapes"
      value {
        list {
          shape {
          }
        }
      }
    }
  }
  node {
    name: "gradients/Mean_grad/truediv"
    op: "RealDiv"
    input: "gradients/Mean_grad/Tile"
    input: "gradients/Mean_grad/Cast"
    attr {
      key: "T"
      value {
        type: DT_FLOAT
      }
    }
    attr {
      key: "_output_shapes"
      value {
        list {
          shape {
            dim {
              size: -1
            }
          }
        }
      }
    }
  }
  node {
    name: "gradients/Reshape_3_grad/Shape"
    op: "Shape"
    input: "SoftmaxCrossEntropyWithLogits"
    attr {
      key: "T"
      value {
        type: DT_FLOAT
      }
    }
    attr {
      key: "_output_shapes"
      value {
        list {
          shape {
            dim {
              size: 1
            }
          }
        }
      }
    }
    attr {
      key: "out_type"
      value {
        type: DT_INT32
      }
    }
  }
  node {
    name: "gradients/Reshape_3_grad/Reshape"
    op: "Reshape"
    input: "gradients/Mean_grad/truediv"
    input: "gradients/Reshape_3_grad/Shape"
    attr {
      key: "T"
      value {
        type: DT_FLOAT
      }
    }
    attr {
      key: "Tshape"
      value {
        type: DT_INT32
      }
    }
    attr {
      key: "_output_shapes"
      value {
        list {
          shape {
            dim {
              size: -1
            }
          }
        }
      }
    }
  }
  node {
    name: "gradients/zeros_like"
    op: "ZerosLike"
    input: "SoftmaxCrossEntropyWithLogits:1"
    attr {
      key: "T"
      value {
        type: DT_FLOAT
      }
    }
    attr {
      key: "_output_shapes"
      value {
        list {
          shape {
            dim {
              size: -1
            }
            dim {
              size: -1
            }
          }
        }
      }
    }
  }
  node {
    name: "gradients/SoftmaxCrossEntropyWithLogits_grad/ExpandDims/dim"
    op: "Const"
    attr {
      key: "_output_shapes"
      value {
        list {
          shape {
          }
        }
      }
    }
    attr {
      key: "dtype"
      value {
        type: DT_INT32
      }
    }
    attr {
      key: "value"
      value {
        tensor {
          dtype: DT_INT32
          tensor_shape {
          }
          int_val: -1
        }
      }
    }
  }
  node {
    name: "gradients/SoftmaxCrossEntropyWithLogits_grad/ExpandDims"
    op: "ExpandDims"
    input: "gradients/Reshape_3_grad/Reshape"
    input: "gradients/SoftmaxCrossEntropyWithLogits_grad/ExpandDims/dim"
    attr {
      key: "T"
      value {
        type: DT_FLOAT
      }
    }
    attr {
      key: "Tdim"
      value {
        type: DT_INT32
      }
    }
    attr {
      key: "_output_shapes"
      value {
        list {
          shape {
            dim {
              size: -1
            }
            dim {
              size: 1
            }
          }
        }
      }
    }
  }
  node {
    name: "gradients/SoftmaxCrossEntropyWithLogits_grad/mul"
    op: "Mul"
    input: "gradients/SoftmaxCrossEntropyWithLogits_grad/ExpandDims"
    input: "SoftmaxCrossEntropyWithLogits:1"
    attr {
      key: "T"
      value {
        type: DT_FLOAT
      }
    }
    attr {
      key: "_output_shapes"
      value {
        list {
          shape {
            dim {
              size: -1
            }
            dim {
              size: -1
            }
          }
        }
      }
    }
  }
  node {
    name: "gradients/Reshape_1_grad/Shape"
    op: "Shape"
    input: "hypothesis"
    attr {
      key: "T"
      value {
        type: DT_FLOAT
      }
    }
    attr {
      key: "_output_shapes"
      value {
        list {
          shape {
            dim {
              size: 2
            }
          }
        }
      }
    }
    attr {
      key: "out_type"
      value {
        type: DT_INT32
      }
    }
  }
  node {
    name: "gradients/Reshape_1_grad/Reshape"
    op: "Reshape"
    input: "gradients/SoftmaxCrossEntropyWithLogits_grad/mul"
    input: "gradients/Reshape_1_grad/Shape"
    attr {
      key: "T"
      value {
        type: DT_FLOAT
      }
    }
    attr {
      key: "Tshape"
      value {
        type: DT_INT32
      }
    }
    attr {
      key: "_output_shapes"
      value {
        list {
          shape {
            dim {
              size: -1
            }
            dim {
              size: 10
            }
          }
        }
      }
    }
  }
  node {
    name: "gradients/fc1/add_grad/Shape"
    op: "Shape"
    input: "fc1/MatMul"
    attr {
      key: "T"
      value {
        type: DT_FLOAT
      }
    }
    attr {
      key: "_output_shapes"
      value {
        list {
          shape {
            dim {
              size: 2
            }
          }
        }
      }
    }
    attr {
      key: "out_type"
      value {
        type: DT_INT32
      }
    }
  }
  node {
    name: "gradients/fc1/add_grad/Shape_1"
    op: "Const"
    attr {
      key: "_output_shapes"
      value {
        list {
          shape {
            dim {
              size: 1
            }
          }
        }
      }
    }
    attr {
      key: "dtype"
      value {
        type: DT_INT32
      }
    }
    attr {
      key: "value"
      value {
        tensor {
          dtype: DT_INT32
          tensor_shape {
            dim {
              size: 1
            }
          }
          int_val: 10
        }
      }
    }
  }
  node {
    name: "gradients/fc1/add_grad/BroadcastGradientArgs"
    op: "BroadcastGradientArgs"
    input: "gradients/fc1/add_grad/Shape"
    input: "gradients/fc1/add_grad/Shape_1"
    attr {
      key: "T"
      value {
        type: DT_INT32
      }
    }
    attr {
      key: "_output_shapes"
      value {
        list {
          shape {
            dim {
              size: -1
            }
          }
          shape {
            dim {
              size: -1
            }
          }
        }
      }
    }
  }
  node {
    name: "gradients/fc1/add_grad/Sum"
    op: "Sum"
    input: "gradients/Reshape_1_grad/Reshape"
    input: "gradients/fc1/add_grad/BroadcastGradientArgs"
    attr {
      key: "T"
      value {
        type: DT_FLOAT
      }
    }
    attr {
      key: "Tidx"
      value {
        type: DT_INT32
      }
    }
    attr {
      key: "_output_shapes"
      value {
        list {
          shape {
            unknown_rank: true
          }
        }
      }
    }
    attr {
      key: "keep_dims"
      value {
        b: false
      }
    }
  }
  node {
    name: "gradients/fc1/add_grad/Reshape"
    op: "Reshape"
    input: "gradients/fc1/add_grad/Sum"
    input: "gradients/fc1/add_grad/Shape"
    attr {
      key: "T"
      value {
        type: DT_FLOAT
      }
    }
    attr {
      key: "Tshape"
      value {
        type: DT_INT32
      }
    }
    attr {
      key: "_output_shapes"
      value {
        list {
          shape {
            dim {
              size: -1
            }
            dim {
              size: 10
            }
          }
        }
      }
    }
  }
  node {
    name: "gradients/fc1/add_grad/Sum_1"
    op: "Sum"
    input: "gradients/Reshape_1_grad/Reshape"
    input: "gradients/fc1/add_grad/BroadcastGradientArgs:1"
    attr {
      key: "T"
      value {
        type: DT_FLOAT
      }
    }
    attr {
      key: "Tidx"
      value {
        type: DT_INT32
      }
    }
    attr {
      key: "_output_shapes"
      value {
        list {
          shape {
            unknown_rank: true
          }
        }
      }
    }
    attr {
      key: "keep_dims"
      value {
        b: false
      }
    }
  }
  node {
    name: "gradients/fc1/add_grad/Reshape_1"
    op: "Reshape"
    input: "gradients/fc1/add_grad/Sum_1"
    input: "gradients/fc1/add_grad/Shape_1"
    attr {
      key: "T"
      value {
        type: DT_FLOAT
      }
    }
    attr {
      key: "Tshape"
      value {
        type: DT_INT32
      }
    }
    attr {
      key: "_output_shapes"
      value {
        list {
          shape {
            dim {
              size: 10
            }
          }
        }
      }
    }
  }
  node {
    name: "gradients/fc1/add_grad/tuple/group_deps"
    op: "NoOp"
    input: "^gradients/fc1/add_grad/Reshape"
    input: "^gradients/fc1/add_grad/Reshape_1"
  }
  node {
    name: "gradients/fc1/add_grad/tuple/control_dependency"
    op: "Identity"
    input: "gradients/fc1/add_grad/Reshape"
    input: "^gradients/fc1/add_grad/tuple/group_deps"
    attr {
      key: "T"
      value {
        type: DT_FLOAT
      }
    }
    attr {
      key: "_class"
      value {
        list {
          s: "loc:@gradients/fc1/add_grad/Reshape"
        }
      }
    }
    attr {
      key: "_output_shapes"
      value {
        list {
          shape {
            dim {
              size: -1
            }
            dim {
              size: 10
            }
          }
        }
      }
    }
  }
  node {
    name: "gradients/fc1/add_grad/tuple/control_dependency_1"
    op: "Identity"
    input: "gradients/fc1/add_grad/Reshape_1"
    input: "^gradients/fc1/add_grad/tuple/group_deps"
    attr {
      key: "T"
      value {
        type: DT_FLOAT
      }
    }
    attr {
      key: "_class"
      value {
        list {
          s: "loc:@gradients/fc1/add_grad/Reshape_1"
        }
      }
    }
    attr {
      key: "_output_shapes"
      value {
        list {
          shape {
            dim {
              size: 10
            }
          }
        }
      }
    }
  }
  node {
    name: "gradients/fc1/MatMul_grad/MatMul"
    op: "MatMul"
    input: "gradients/fc1/add_grad/tuple/control_dependency"
    input: "fc1/W/read"
    attr {
      key: "T"
      value {
        type: DT_FLOAT
      }
    }
    attr {
      key: "_output_shapes"
      value {
        list {
          shape {
            dim {
              size: -1
            }
            dim {
              size: 625
            }
          }
        }
      }
    }
    attr {
      key: "transpose_a"
      value {
        b: false
      }
    }
    attr {
      key: "transpose_b"
      value {
        b: true
      }
    }
  }
  node {
    name: "gradients/fc1/MatMul_grad/MatMul_1"
    op: "MatMul"
    input: "fc0/Relu"
    input: "gradients/fc1/add_grad/tuple/control_dependency"
    attr {
      key: "T"
      value {
        type: DT_FLOAT
      }
    }
    attr {
      key: "_output_shapes"
      value {
        list {
          shape {
            dim {
              size: 625
            }
            dim {
              size: 10
            }
          }
        }
      }
    }
    attr {
      key: "transpose_a"
      value {
        b: true
      }
    }
    attr {
      key: "transpose_b"
      value {
        b: false
      }
    }
  }
  node {
    name: "gradients/fc1/MatMul_grad/tuple/group_deps"
    op: "NoOp"
    input: "^gradients/fc1/MatMul_grad/MatMul"
    input: "^gradients/fc1/MatMul_grad/MatMul_1"
  }
  node {
    name: "gradients/fc1/MatMul_grad/tuple/control_dependency"
    op: "Identity"
    input: "gradients/fc1/MatMul_grad/MatMul"
    input: "^gradients/fc1/MatMul_grad/tuple/group_deps"
    attr {
      key: "T"
      value {
        type: DT_FLOAT
      }
    }
    attr {
      key: "_class"
      value {
        list {
          s: "loc:@gradients/fc1/MatMul_grad/MatMul"
        }
      }
    }
    attr {
      key: "_output_shapes"
      value {
        list {
          shape {
            dim {
              size: -1
            }
            dim {
              size: 625
            }
          }
        }
      }
    }
  }
  node {
    name: "gradients/fc1/MatMul_grad/tuple/control_dependency_1"
    op: "Identity"
    input: "gradients/fc1/MatMul_grad/MatMul_1"
    input: "^gradients/fc1/MatMul_grad/tuple/group_deps"
    attr {
      key: "T"
      value {
        type: DT_FLOAT
      }
    }
    attr {
      key: "_class"
      value {
        list {
          s: "loc:@gradients/fc1/MatMul_grad/MatMul_1"
        }
      }
    }
    attr {
      key: "_output_shapes"
      value {
        list {
          shape {
            dim {
              size: 625
            }
            dim {
              size: 10
            }
          }
        }
      }
    }
  }
  node {
    name: "gradients/fc0/Relu_grad/ReluGrad"
    op: "ReluGrad"
    input: "gradients/fc1/MatMul_grad/tuple/control_dependency"
    input: "fc0/Relu"
    attr {
      key: "T"
      value {
        type: DT_FLOAT
      }
    }
    attr {
      key: "_output_shapes"
      value {
        list {
          shape {
            dim {
              size: -1
            }
            dim {
              size: 625
            }
          }
        }
      }
    }
  }
  node {
    name: "gradients/fc0/add_grad/Shape"
    op: "Shape"
    input: "fc0/MatMul"
    attr {
      key: "T"
      value {
        type: DT_FLOAT
      }
    }
    attr {
      key: "_output_shapes"
      value {
        list {
          shape {
            dim {
              size: 2
            }
          }
        }
      }
    }
    attr {
      key: "out_type"
      value {
        type: DT_INT32
      }
    }
  }
  node {
    name: "gradients/fc0/add_grad/Shape_1"
    op: "Const"
    attr {
      key: "_output_shapes"
      value {
        list {
          shape {
            dim {
              size: 1
            }
          }
        }
      }
    }
    attr {
      key: "dtype"
      value {
        type: DT_INT32
      }
    }
    attr {
      key: "value"
      value {
        tensor {
          dtype: DT_INT32
          tensor_shape {
            dim {
              size: 1
            }
          }
          int_val: 625
        }
      }
    }
  }
  node {
    name: "gradients/fc0/add_grad/BroadcastGradientArgs"
    op: "BroadcastGradientArgs"
    input: "gradients/fc0/add_grad/Shape"
    input: "gradients/fc0/add_grad/Shape_1"
    attr {
      key: "T"
      value {
        type: DT_INT32
      }
    }
    attr {
      key: "_output_shapes"
      value {
        list {
          shape {
            dim {
              size: -1
            }
          }
          shape {
            dim {
              size: -1
            }
          }
        }
      }
    }
  }
  node {
    name: "gradients/fc0/add_grad/Sum"
    op: "Sum"
    input: "gradients/fc0/Relu_grad/ReluGrad"
    input: "gradients/fc0/add_grad/BroadcastGradientArgs"
    attr {
      key: "T"
      value {
        type: DT_FLOAT
      }
    }
    attr {
      key: "Tidx"
      value {
        type: DT_INT32
      }
    }
    attr {
      key: "_output_shapes"
      value {
        list {
          shape {
            unknown_rank: true
          }
        }
      }
    }
    attr {
      key: "keep_dims"
      value {
        b: false
      }
    }
  }
  node {
    name: "gradients/fc0/add_grad/Reshape"
    op: "Reshape"
    input: "gradients/fc0/add_grad/Sum"
    input: "gradients/fc0/add_grad/Shape"
    attr {
      key: "T"
      value {
        type: DT_FLOAT
      }
    }
    attr {
      key: "Tshape"
      value {
        type: DT_INT32
      }
    }
    attr {
      key: "_output_shapes"
      value {
        list {
          shape {
            dim {
              size: -1
            }
            dim {
              size: 625
            }
          }
        }
      }
    }
  }
  node {
    name: "gradients/fc0/add_grad/Sum_1"
    op: "Sum"
    input: "gradients/fc0/Relu_grad/ReluGrad"
    input: "gradients/fc0/add_grad/BroadcastGradientArgs:1"
    attr {
      key: "T"
      value {
        type: DT_FLOAT
      }
    }
    attr {
      key: "Tidx"
      value {
        type: DT_INT32
      }
    }
    attr {
      key: "_output_shapes"
      value {
        list {
          shape {
            unknown_rank: true
          }
        }
      }
    }
    attr {
      key: "keep_dims"
      value {
        b: false
      }
    }
  }
  node {
    name: "gradients/fc0/add_grad/Reshape_1"
    op: "Reshape"
    input: "gradients/fc0/add_grad/Sum_1"
    input: "gradients/fc0/add_grad/Shape_1"
    attr {
      key: "T"
      value {
        type: DT_FLOAT
      }
    }
    attr {
      key: "Tshape"
      value {
        type: DT_INT32
      }
    }
    attr {
      key: "_output_shapes"
      value {
        list {
          shape {
            dim {
              size: 625
            }
          }
        }
      }
    }
  }
  node {
    name: "gradients/fc0/add_grad/tuple/group_deps"
    op: "NoOp"
    input: "^gradients/fc0/add_grad/Reshape"
    input: "^gradients/fc0/add_grad/Reshape_1"
  }
  node {
    name: "gradients/fc0/add_grad/tuple/control_dependency"
    op: "Identity"
    input: "gradients/fc0/add_grad/Reshape"
    input: "^gradients/fc0/add_grad/tuple/group_deps"
    attr {
      key: "T"
      value {
        type: DT_FLOAT
      }
    }
    attr {
      key: "_class"
      value {
        list {
          s: "loc:@gradients/fc0/add_grad/Reshape"
        }
      }
    }
    attr {
      key: "_output_shapes"
      value {
        list {
          shape {
            dim {
              size: -1
            }
            dim {
              size: 625
            }
          }
        }
      }
    }
  }
  node {
    name: "gradients/fc0/add_grad/tuple/control_dependency_1"
    op: "Identity"
    input: "gradients/fc0/add_grad/Reshape_1"
    input: "^gradients/fc0/add_grad/tuple/group_deps"
    attr {
      key: "T"
      value {
        type: DT_FLOAT
      }
    }
    attr {
      key: "_class"
      value {
        list {
          s: "loc:@gradients/fc0/add_grad/Reshape_1"
        }
      }
    }
    attr {
      key: "_output_shapes"
      value {
        list {
          shape {
            dim {
              size: 625
            }
          }
        }
      }
    }
  }
  node {
    name: "gradients/fc0/MatMul_grad/MatMul"
    op: "MatMul"
    input: "gradients/fc0/add_grad/tuple/control_dependency"
    input: "fc0/W/read"
    attr {
      key: "T"
      value {
        type: DT_FLOAT
      }
    }
    attr {
      key: "_output_shapes"
      value {
        list {
          shape {
            dim {
              size: -1
            }
            dim {
              size: 2048
            }
          }
        }
      }
    }
    attr {
      key: "transpose_a"
      value {
        b: false
      }
    }
    attr {
      key: "transpose_b"
      value {
        b: true
      }
    }
  }
  node {
    name: "gradients/fc0/MatMul_grad/MatMul_1"
    op: "MatMul"
    input: "Reshape"
    input: "gradients/fc0/add_grad/tuple/control_dependency"
    attr {
      key: "T"
      value {
        type: DT_FLOAT
      }
    }
    attr {
      key: "_output_shapes"
      value {
        list {
          shape {
            dim {
              size: 2048
            }
            dim {
              size: 625
            }
          }
        }
      }
    }
    attr {
      key: "transpose_a"
      value {
        b: true
      }
    }
    attr {
      key: "transpose_b"
      value {
        b: false
      }
    }
  }
  node {
    name: "gradients/fc0/MatMul_grad/tuple/group_deps"
    op: "NoOp"
    input: "^gradients/fc0/MatMul_grad/MatMul"
    input: "^gradients/fc0/MatMul_grad/MatMul_1"
  }
  node {
    name: "gradients/fc0/MatMul_grad/tuple/control_dependency"
    op: "Identity"
    input: "gradients/fc0/MatMul_grad/MatMul"
    input: "^gradients/fc0/MatMul_grad/tuple/group_deps"
    attr {
      key: "T"
      value {
        type: DT_FLOAT
      }
    }
    attr {
      key: "_class"
      value {
        list {
…
            }
          }
          string_val: "conv2/W"
        }
      }
    }
  }
  node {
    name: "save/RestoreV2_17/shape_and_slices"
    op: "Const"
    attr {
      key: "_output_shapes"
      value {
        list {
          shape {
            dim {
              size: 1
            }
          }
        }
      }
    }
    attr {
      key: "dtype"
      value {
        type: DT_STRING
      }
    }
    attr {
      key: "value"
      value {
        tensor {
          dtype: DT_STRING
          tensor_shape {
            dim {
              size: 1
            }
          }
          string_val: ""
        }
      }
    }
  }
  node {
    name: "save/RestoreV2_17"
    op: "RestoreV2"
    input: "save/Const"
    input: "save/RestoreV2_17/tensor_names"
    input: "save/RestoreV2_17/shape_and_slices"
    attr {
      key: "_output_shapes"
      value {
        list {
          shape {
            unknown_rank: true
          }
        }
      }
    }
    attr {
      key: "dtypes"
      value {
        list {
          type: DT_FLOAT
        }
      }
    }
  }
  node {
    name: "save/Assign_17"
    op: "Assign"
    input: "conv2/W"
    input: "save/RestoreV2_17"
    attr {
      key: "T"
      value {
        type: DT_FLOAT
      }
    }
    attr {
      key: "_class"
      value {
        list {
          s: "loc:@conv2/W"
        }
      }
    }
    attr {
      key: "_output_shapes"
      value {
        list {
          shape {
            dim {
              size: 3
            }
            dim {
              size: 3
            }
            dim {
              size: 64
            }
            dim {
              size: 128
            }
          }
        }
      }
    }
    attr {
      key: "use_locking"
      value {
        b: true
      }
    }
    attr {
      key: "validate_shape"
      value {
        b: true
      }
    }
  }
  node {
    name: "save/RestoreV2_18/tensor_names"
    op: "Const"
    attr {
      key: "_output_shapes"
      value {
        list {
          shape {
            dim {
              size: 1
            }
          }
        }
      }
    }
    attr {
      key: "dtype"
      value {
        type: DT_STRING
      }
    }
    attr {
      key: "value"
      value {
        tensor {
          dtype: DT_STRING
          tensor_shape {
            dim {
              size: 1
            }
          }
          string_val: "conv2/W/Adam"
        }
      }
    }
  }
  node {
    name: "save/RestoreV2_18/shape_and_slices"
    op: "Const"
    attr {
      key: "_output_shapes"
      value {
        list {
          shape {
            dim {
              size: 1
            }
          }
        }
      }
    }
    attr {
      key: "dtype"
      value {
        type: DT_STRING
      }
    }
    attr {
      key: "value"
      value {
        tensor {
          dtype: DT_STRING
          tensor_shape {
            dim {
              size: 1
            }
          }
          string_val: ""
        }
      }
    }
  }
  node {
    name: "save/RestoreV2_18"
    op: "RestoreV2"
    input: "save/Const"
    input: "save/RestoreV2_18/tensor_names"
    input: "save/RestoreV2_18/shape_and_slices"
    attr {
      key: "_output_shapes"
      value {
        list {
          shape {
            unknown_rank: true
          }
        }
      }
    }
    attr {
      key: "dtypes"
      value {
        list {
          type: DT_FLOAT
        }
      }
    }
  }
  node {
    name: "save/Assign_18"
    op: "Assign"
    input: "conv2/W/Adam"
    input: "save/RestoreV2_18"
    attr {
      key: "T"
      value {
        type: DT_FLOAT
      }
    }
    attr {
      key: "_class"
      value {
        list {
          s: "loc:@conv2/W"
        }
      }
    }
    attr {
      key: "_output_shapes"
      value {
        list {
          shape {
            dim {
              size: 3
            }
            dim {
              size: 3
            }
            dim {
              size: 64
            }
            dim {
              size: 128
            }
          }
        }
      }
    }
    attr {
      key: "use_locking"
      value {
        b: true
      }
    }
    attr {
      key: "validate_shape"
      value {
        b: true
      }
    }
  }
  node {
    name: "save/RestoreV2_19/tensor_names"
    op: "Const"
    attr {
      key: "_output_shapes"
      value {
        list {
          shape {
            dim {
              size: 1
            }
          }
        }
      }
    }
    attr {
      key: "dtype"
      value {
        type: DT_STRING
      }
    }
    attr {
      key: "value"
      value {
        tensor {
          dtype: DT_STRING
          tensor_shape {
            dim {
              size: 1
            }
          }
          string_val: "conv2/W/Adam_1"
        }
      }
    }
  }
  node {
    name: "save/RestoreV2_19/shape_and_slices"
    op: "Const"
    attr {
      key: "_output_shapes"
      value {
        list {
          shape {
            dim {
              size: 1
            }
          }
        }
      }
    }
    attr {
      key: "dtype"
      value {
        type: DT_STRING
      }
    }
    attr {
      key: "value"
      value {
        tensor {
          dtype: DT_STRING
          tensor_shape {
            dim {
              size: 1
            }
          }
          string_val: ""
        }
      }
    }
  }
  node {
    name: "save/RestoreV2_19"
    op: "RestoreV2"
    input: "save/Const"
    input: "save/RestoreV2_19/tensor_names"
    input: "save/RestoreV2_19/shape_and_slices"
    attr {
      key: "_output_shapes"
      value {
        list {
          shape {
            unknown_rank: true
          }
        }
      }
    }
    attr {
      key: "dtypes"
      value {
        list {
          type: DT_FLOAT
        }
      }
    }
  }
  node {
    name: "save/Assign_19"
    op: "Assign"
    input: "conv2/W/Adam_1"
    input: "save/RestoreV2_19"
    attr {
      key: "T"
      value {
        type: DT_FLOAT
      }
    }
    attr {
      key: "_class"
      value {
        list {
          s: "loc:@conv2/W"
        }
      }
    }
    attr {
      key: "_output_shapes"
      value {
        list {
          shape {
            dim {
              size: 3
            }
            dim {
              size: 3
            }
            dim {
              size: 64
            }
            dim {
              size: 128
            }
          }
        }
      }
    }
    attr {
      key: "use_locking"
      value {
        b: true
      }
    }
    attr {
      key: "validate_shape"
      value {
        b: true
      }
    }
  }
  node {
    name: "save/RestoreV2_20/tensor_names"
    op: "Const"
    attr {
      key: "_output_shapes"
      value {
        list {
          shape {
            dim {
              size: 1
            }
          }
        }
      }
    }
    attr {
      key: "dtype"
      value {
        type: DT_STRING
      }
    }
    attr {
      key: "value"
      value {
        tensor {
          dtype: DT_STRING
          tensor_shape {
            dim {
              size: 1
            }
          }
          string_val: "fc0/Variable"
        }
      }
    }
  }
  node {
    name: "save/RestoreV2_20/shape_and_slices"
    op: "Const"
    attr {
      key: "_output_shapes"
      value {
        list {
          shape {
            dim {
              size: 1
            }
          }
        }
      }
    }
    attr {
      key: "dtype"
      value {
        type: DT_STRING
      }
    }
    attr {
      key: "value"
      value {
        tensor {
          dtype: DT_STRING
          tensor_shape {
            dim {
              size: 1
            }
          }
          string_val: ""
        }
      }
    }
  }
  node {
    name: "save/RestoreV2_20"
    op: "RestoreV2"
    input: "save/Const"
    input: "save/RestoreV2_20/tensor_names"
    input: "save/RestoreV2_20/shape_and_slices"
    attr {
      key: "_output_shapes"
      value {
        list {
          shape {
            unknown_rank: true
          }
        }
      }
    }
    attr {
      key: "dtypes"
      value {
        list {
          type: DT_FLOAT
        }
      }
    }
  }
  node {
    name: "save/Assign_20"
    op: "Assign"
    input: "fc0/Variable"
    input: "save/RestoreV2_20"
    attr {
      key: "T"
      value {
        type: DT_FLOAT
      }
    }
    attr {
      key: "_class"
      value {
        list {
          s: "loc:@fc0/Variable"
        }
      }
    }
    attr {
      key: "_output_shapes"
      value {
        list {
          shape {
            dim {
              size: 625
            }
          }
        }
      }
    }
    attr {
      key: "use_locking"
      value {
        b: true
      }
    }
    attr {
      key: "validate_shape"
      value {
        b: true
      }
    }
  }
  node {
    name: "save/RestoreV2_21/tensor_names"
    op: "Const"
    attr {
      key: "_output_shapes"
      value {
        list {
          shape {
            dim {
              size: 1
            }
          }
        }
      }
    }
    attr {
      key: "dtype"
      value {
        type: DT_STRING
      }
    }
    attr {
      key: "value"
      value {
        tensor {
          dtype: DT_STRING
          tensor_shape {
            dim {
              size: 1
            }
          }
          string_val: "fc0/Variable/Adam"
        }
      }
    }
  }
  node {
    name: "save/RestoreV2_21/shape_and_slices"
    op: "Const"
    attr {
      key: "_output_shapes"
      value {
        list {
          shape {
            dim {
              size: 1
            }
          }
        }
      }
    }
    attr {
      key: "dtype"
      value {
        type: DT_STRING
      }
    }
    attr {
      key: "value"
      value {
        tensor {
          dtype: DT_STRING
          tensor_shape {
            dim {
              size: 1
            }
          }
          string_val: ""
        }
      }
    }
  }
  node {
    name: "save/RestoreV2_21"
    op: "RestoreV2"
    input: "save/Const"
    input: "save/RestoreV2_21/tensor_names"
    input: "save/RestoreV2_21/shape_and_slices"
    attr {
      key: "_output_shapes"
      value {
        list {
          shape {
            unknown_rank: true
          }
        }
      }
    }
    attr {
      key: "dtypes"
      value {
        list {
          type: DT_FLOAT
        }
      }
    }
  }
  node {
    name: "save/Assign_21"
    op: "Assign"
    input: "fc0/Variable/Adam"
    input: "save/RestoreV2_21"
    attr {
      key: "T"
      value {
        type: DT_FLOAT
      }
    }
    attr {
      key: "_class"
      value {
        list {
          s: "loc:@fc0/Variable"
        }
      }
    }
    attr {
      key: "_output_shapes"
      value {
        list {
          shape {
            dim {
              size: 625
            }
          }
        }
      }
    }
    attr {
      key: "use_locking"
      value {
        b: true
      }
    }
    attr {
      key: "validate_shape"
      value {
        b: true
      }
    }
  }
  node {
    name: "save/RestoreV2_22/tensor_names"
    op: "Const"
    attr {
      key: "_output_shapes"
      value {
        list {
          shape {
            dim {
              size: 1
            }
          }
        }
      }
    }
    attr {
      key: "dtype"
      value {
        type: DT_STRING
      }
    }
    attr {
      key: "value"
      value {
        tensor {
          dtype: DT_STRING
          tensor_shape {
            dim {
              size: 1
            }
          }
          string_val: "fc0/Variable/Adam_1"
        }
      }
    }
  }
  node {
    name: "save/RestoreV2_22/shape_and_slices"
    op: "Const"
    attr {
      key: "_output_shapes"
      value {
        list {
          shape {
            dim {
              size: 1
            }
          }
        }
      }
    }
    attr {
      key: "dtype"
      value {
        type: DT_STRING
      }
    }
    attr {
      key: "value"
      value {
        tensor {
          dtype: DT_STRING
          tensor_shape {
            dim {
              size: 1
            }
          }
          string_val: ""
        }
      }
    }
  }
  node {
    name: "save/RestoreV2_22"
    op: "RestoreV2"
    input: "save/Const"
    input: "save/RestoreV2_22/tensor_names"
    input: "save/RestoreV2_22/shape_and_slices"
    attr {
      key: "_output_shapes"
      value {
        list {
          shape {
            unknown_rank: true
          }
        }
      }
    }
    attr {
      key: "dtypes"
      value {
        list {
          type: DT_FLOAT
        }
      }
    }
  }
  node {
    name: "save/Assign_22"
    op: "Assign"
    input: "fc0/Variable/Adam_1"
    input: "save/RestoreV2_22"
    attr {
      key: "T"
      value {
        type: DT_FLOAT
      }
    }
    attr {
      key: "_class"
      value {
        list {
          s: "loc:@fc0/Variable"
        }
      }
    }
    attr {
      key: "_output_shapes"
      value {
        list {
          shape {
            dim {
              size: 625
            }
          }
        }
      }
    }
    attr {
      key: "use_locking"
      value {
        b: true
      }
    }
    attr {
      key: "validate_shape"
      value {
        b: true
      }
    }
  }
  node {
    name: "save/RestoreV2_23/tensor_names"
    op: "Const"
    attr {
      key: "_output_shapes"
      value {
        list {
          shape {
            dim {
              size: 1
            }
          }
        }
      }
    }
    attr {
      key: "dtype"
      value {
        type: DT_STRING
      }
    }
    attr {
      key: "value"
      value {
        tensor {
          dtype: DT_STRING
          tensor_shape {
            dim {
              size: 1
            }
          }
          string_val: "fc0/W"
        }
      }
    }
  }
  node {
    name: "save/RestoreV2_23/shape_and_slices"
    op: "Const"
    attr {
      key: "_output_shapes"
      value {
        list {
          shape {
            dim {
              size: 1
            }
          }
        }
      }
    }
    attr {
      key: "dtype"
      value {
        type: DT_STRING
      }
    }
    attr {
      key: "value"
      value {
        tensor {
          dtype: DT_STRING
          tensor_shape {
            dim {
              size: 1
            }
          }
          string_val: ""
        }
      }
    }
  }
  node {
    name: "save/RestoreV2_23"
    op: "RestoreV2"
    input: "save/Const"
    input: "save/RestoreV2_23/tensor_names"
    input: "save/RestoreV2_23/shape_and_slices"
    attr {
      key: "_output_shapes"
      value {
        list {
          shape {
            unknown_rank: true
          }
        }
      }
    }
    attr {
      key: "dtypes"
      value {
        list {
          type: DT_FLOAT
        }
      }
    }
  }
  node {
    name: "save/Assign_23"
    op: "Assign"
    input: "fc0/W"
    input: "save/RestoreV2_23"
    attr {
      key: "T"
      value {
        type: DT_FLOAT
      }
    }
    attr {
      key: "_class"
      value {
        list {
          s: "loc:@fc0/W"
        }
      }
    }
    attr {
      key: "_output_shapes"
      value {
        list {
          shape {
            dim {
              size: 2048
            }
            dim {
              size: 625
            }
          }
        }
      }
    }
    attr {
      key: "use_locking"
      value {
        b: true
      }
    }
    attr {
      key: "validate_shape"
      value {
        b: true
      }
    }
  }
  node {
    name: "save/RestoreV2_24/tensor_names"
    op: "Const"
    attr {
      key: "_output_shapes"
      value {
        list {
          shape {
            dim {
              size: 1
            }
          }
        }
      }
    }
    attr {
      key: "dtype"
      value {
        type: DT_STRING
      }
    }
    attr {
      key: "value"
      value {
        tensor {
          dtype: DT_STRING
          tensor_shape {
            dim {
              size: 1
            }
          }
          string_val: "fc0/W/Adam"
        }
      }
    }
  }
  node {
    name: "save/RestoreV2_24/shape_and_slices"
    op: "Const"
    attr {
      key: "_output_shapes"
      value {
        list {
          shape {
            dim {
              size: 1
            }
          }
        }
      }
    }
    attr {
      key: "dtype"
      value {
        type: DT_STRING
      }
    }
    attr {
      key: "value"
      value {
        tensor {
          dtype: DT_STRING
          tensor_shape {
            dim {
              size: 1
            }
          }
          string_val: ""
        }
      }
    }
  }
  node {
    name: "save/RestoreV2_24"
    op: "RestoreV2"
    input: "save/Const"
    input: "save/RestoreV2_24/tensor_names"
    input: "save/RestoreV2_24/shape_and_slices"
    attr {
      key: "_output_shapes"
      value {
        list {
          shape {
            unknown_rank: true
          }
        }
      }
    }
    attr {
      key: "dtypes"
      value {
        list {
          type: DT_FLOAT
        }
      }
    }
  }
  node {
    name: "save/Assign_24"
    op: "Assign"
    input: "fc0/W/Adam"
    input: "save/RestoreV2_24"
    attr {
      key: "T"
      value {
        type: DT_FLOAT
      }
    }
    attr {
      key: "_class"
      value {
        list {
          s: "loc:@fc0/W"
        }
      }
    }
    attr {
      key: "_output_shapes"
      value {
        list {
          shape {
            dim {
              size: 2048
            }
            dim {
              size: 625
            }
          }
        }
      }
    }
    attr {
      key: "use_locking"
      value {
        b: true
      }
    }
    attr {
      key: "validate_shape"
      value {
        b: true
      }
    }
  }
  node {
    name: "save/RestoreV2_25/tensor_names"
    op: "Const"
    attr {
      key: "_output_shapes"
      value {
        list {
          shape {
            dim {
              size: 1
            }
          }
        }
      }
    }
    attr {
      key: "dtype"
      value {
        type: DT_STRING
      }
    }
    attr {
      key: "value"
      value {
        tensor {
          dtype: DT_STRING
          tensor_shape {
            dim {
              size: 1
            }
          }
          string_val: "fc0/W/Adam_1"
        }
      }
    }
  }
  node {
    name: "save/RestoreV2_25/shape_and_slices"
    op: "Const"
    attr {
      key: "_output_shapes"
      value {
        list {
          shape {
            dim {
              size: 1
            }
          }
        }
      }
    }
    attr {
      key: "dtype"
      value {
        type: DT_STRING
      }
    }
    attr {
      key: "value"
      value {
        tensor {
          dtype: DT_STRING
          tensor_shape {
            dim {
              size: 1
            }
          }
          string_val: ""
        }
      }
    }
  }
  node {
    name: "save/RestoreV2_25"
    op: "RestoreV2"
    input: "save/Const"
    input: "save/RestoreV2_25/tensor_names"
    input: "save/RestoreV2_25/shape_and_slices"
    attr {
      key: "_output_shapes"
      value {
        list {
          shape {
            unknown_rank: true
          }
        }
      }
    }
    attr {
      key: "dtypes"
      value {
        list {
          type: DT_FLOAT
        }
      }
    }
  }
  node {
    name: "save/Assign_25"
    op: "Assign"
    input: "fc0/W/Adam_1"
    input: "save/RestoreV2_25"
    attr {
      key: "T"
      value {
        type: DT_FLOAT
      }
    }
    attr {
      key: "_class"
      value {
        list {
          s: "loc:@fc0/W"
        }
      }
    }
    attr {
      key: "_output_shapes"
      value {
        list {
          shape {
            dim {
              size: 2048
            }
            dim {
              size: 625
            }
          }
        }
      }
    }
    attr {
      key: "use_locking"
      value {
        b: true
      }
    }
    attr {
      key: "validate_shape"
      value {
        b: true
      }
    }
  }
  node {
    name: "save/RestoreV2_26/tensor_names"
    op: "Const"
    attr {
      key: "_output_shapes"
      value {
        list {
          shape {
            dim {
              size: 1
            }
          }
        }
      }
    }
    attr {
      key: "dtype"
      value {
        type: DT_STRING
      }
    }
    attr {
      key: "value"
      value {
        tensor {
          dtype: DT_STRING
          tensor_shape {
            dim {
              size: 1
            }
          }
          string_val: "fc1/Variable"
        }
      }
    }
  }
  node {
    name: "save/RestoreV2_26/shape_and_slices"
    op: "Const"
    attr {
      key: "_output_shapes"
      value {
        list {
          shape {
            dim {
              size: 1
            }
          }
        }
      }
    }
    attr {
      key: "dtype"
      value {
        type: DT_STRING
      }
    }
    attr {
      key: "value"
      value {
        tensor {
          dtype: DT_STRING
          tensor_shape {
            dim {
              size: 1
            }
          }
          string_val: ""
        }
      }
    }
  }
  node {
    name: "save/RestoreV2_26"
    op: "RestoreV2"
    input: "save/Const"
    input: "save/RestoreV2_26/tensor_names"
    input: "save/RestoreV2_26/shape_and_slices"
    attr {
      key: "_output_shapes"
      value {
        list {
          shape {
            unknown_rank: true
          }
        }
      }
    }
    attr {
      key: "dtypes"
      value {
        list {
          type: DT_FLOAT
        }
      }
    }
  }
  node {
    name: "save/Assign_26"
    op: "Assign"
    input: "fc1/Variable"
    input: "save/RestoreV2_26"
    attr {
      key: "T"
      value {
        type: DT_FLOAT
      }
    }
    attr {
      key: "_class"
      value {
        list {
          s: "loc:@fc1/Variable"
        }
      }
    }
    attr {
      key: "_output_shapes"
      value {
        list {
          shape {
            dim {
              size: 10
            }
          }
        }
      }
    }
    attr {
      key: "use_locking"
      value {
        b: true
      }
    }
    attr {
      key: "validate_shape"
      value {
        b: true
      }
    }
  }
  node {
    name: "save/RestoreV2_27/tensor_names"
    op: "Const"
    attr {
      key: "_output_shapes"
      value {
        list {
          shape {
            dim {
              size: 1
            }
          }
        }
      }
    }
    attr {
      key: "dtype"
      value {
        type: DT_STRING
      }
    }
    attr {
      key: "value"
      value {
        tensor {
          dtype: DT_STRING
          tensor_shape {
            dim {
              size: 1
            }
          }
          string_val: "fc1/Variable/Adam"
        }
      }
    }
  }
  node {
    name: "save/RestoreV2_27/shape_and_slices"
    op: "Const"
    attr {
      key: "_output_shapes"
      value {
        list {
          shape {
            dim {
              size: 1
            }
          }
        }
      }
    }
    attr {
      key: "dtype"
      value {
        type: DT_STRING
      }
    }
    attr {
      key: "value"
      value {
        tensor {
          dtype: DT_STRING
          tensor_shape {
            dim {
              size: 1
            }
          }
          string_val: ""
        }
      }
    }
  }
  node {
    name: "save/RestoreV2_27"
    op: "RestoreV2"
    input: "save/Const"
    input: "save/RestoreV2_27/tensor_names"
    input: "save/RestoreV2_27/shape_and_slices"
    attr {
      key: "_output_shapes"
      value {
        list {
          shape {
            unknown_rank: true
          }
        }
      }
    }
    attr {
      key: "dtypes"
      value {
        list {
          type: DT_FLOAT
        }
      }
    }
  }
  node {
    name: "save/Assign_27"
    op: "Assign"
    input: "fc1/Variable/Adam"
    input: "save/RestoreV2_27"
    attr {
      key: "T"
      value {
        type: DT_FLOAT
      }
    }
    attr {
      key: "_class"
      value {
        list {
          s: "loc:@fc1/Variable"
        }
      }
    }
    attr {
      key: "_output_shapes"
      value {
        list {
          shape {
            dim {
              size: 10
            }
          }
        }
      }
    }
    attr {
      key: "use_locking"
      value {
        b: true
      }
    }
    attr {
      key: "validate_shape"
      value {
        b: true
      }
    }
  }
  node {
    name: "save/RestoreV2_28/tensor_names"
    op: "Const"
    attr {
      key: "_output_shapes"
      value {
        list {
          shape {
            dim {
              size: 1
            }
          }
        }
      }
    }
    attr {
      key: "dtype"
      value {
        type: DT_STRING
      }
    }
    attr {
      key: "value"
      value {
        tensor {
          dtype: DT_STRING
          tensor_shape {
            dim {
              size: 1
            }
          }
          string_val: "fc1/Variable/Adam_1"
        }
      }
    }
  }
  node {
    name: "save/RestoreV2_28/shape_and_slices"
    op: "Const"
    attr {
      key: "_output_shapes"
      value {
        list {
          shape {
            dim {
              size: 1
            }
          }
        }
      }
    }
    attr {
      key: "dtype"
      value {
        type: DT_STRING
      }
    }
    attr {
      key: "value"
      value {
        tensor {
          dtype: DT_STRING
          tensor_shape {
            dim {
              size: 1
            }
          }
          string_val: ""
        }
      }
    }
  }
  node {
    name: "save/RestoreV2_28"
    op: "RestoreV2"
    input: "save/Const"
    input: "save/RestoreV2_28/tensor_names"
    input: "save/RestoreV2_28/shape_and_slices"
    attr {
      key: "_output_shapes"
      value {
        list {
          shape {
            unknown_rank: true
          }
        }
      }
    }
    attr {
      key: "dtypes"
      value {
        list {
          type: DT_FLOAT
        }
      }
    }
  }
  node {
    name: "save/Assign_28"
    op: "Assign"
    input: "fc1/Variable/Adam_1"
    input: "save/RestoreV2_28"
    attr {
      key: "T"
      value {
        type: DT_FLOAT
      }
    }
    attr {
      key: "_class"
      value {
        list {
          s: "loc:@fc1/Variable"
        }
      }
    }
    attr {
      key: "_output_shapes"
      value {
        list {
          shape {
            dim {
              size: 10
            }
          }
        }
      }
    }
    attr {
      key: "use_locking"
      value {
        b: true
      }
    }
    attr {
      key: "validate_shape"
      value {
        b: true
      }
    }
  }
  node {
    name: "save/RestoreV2_29/tensor_names"
    op: "Const"
    attr {
      key: "_output_shapes"
      value {
        list {
          shape {
            dim {
              size: 1
            }
          }
        }
      }
    }
    attr {
      key: "dtype"
      value {
        type: DT_STRING
      }
    }
    attr {
      key: "value"
      value {
        tensor {
          dtype: DT_STRING
          tensor_shape {
            dim {
              size: 1
            }
          }
          string_val: "fc1/W"
        }
      }
    }
  }
  node {
    name: "save/RestoreV2_29/shape_and_slices"
    op: "Const"
    attr {
      key: "_output_shapes"
      value {
        list {
          shape {
            dim {
              size: 1
            }
          }
        }
      }
    }
    attr {
      key: "dtype"
      value {
        type: DT_STRING
      }
    }
    attr {
      key: "value"
      value {
        tensor {
          dtype: DT_STRING
          tensor_shape {
            dim {
              size: 1
            }
          }
          string_val: ""
        }
      }
    }
  }
  node {
    name: "save/RestoreV2_29"
    op: "RestoreV2"
    input: "save/Const"
    input: "save/RestoreV2_29/tensor_names"
    input: "save/RestoreV2_29/shape_and_slices"
    attr {
      key: "_output_shapes"
      value {
        list {
          shape {
            unknown_rank: true
          }
        }
      }
    }
    attr {
      key: "dtypes"
      value {
        list {
          type: DT_FLOAT
        }
      }
    }
  }
  node {
    name: "save/Assign_29"
    op: "Assign"
    input: "fc1/W"
    input: "save/RestoreV2_29"
    attr {
      key: "T"
      value {
        type: DT_FLOAT
      }
    }
    attr {
      key: "_class"
      value {
        list {
          s: "loc:@fc1/W"
        }
      }
    }
    attr {
      key: "_output_shapes"
      value {
        list {
          shape {
            dim {
              size: 625
            }
            dim {
              size: 10
            }
          }
        }
      }
    }
    attr {
      key: "use_locking"
      value {
        b: true
      }
    }
    attr {
      key: "validate_shape"
      value {
        b: true
      }
    }
  }
  node {
    name: "save/RestoreV2_30/tensor_names"
    op: "Const"
    attr {
      key: "_output_shapes"
      value {
        list {
          shape {
            dim {
              size: 1
            }
          }
        }
      }
    }
    attr {
      key: "dtype"
      value {
        type: DT_STRING
      }
    }
    attr {
      key: "value"
      value {
        tensor {
          dtype: DT_STRING
          tensor_shape {
            dim {
              size: 1
            }
          }
          string_val: "fc1/W/Adam"
        }
      }
    }
  }
  node {
    name: "save/RestoreV2_30/shape_and_slices"
    op: "Const"
    attr {
      key: "_output_shapes"
      value {
        list {
          shape {
            dim {
              size: 1
            }
          }
        }
      }
    }
    attr {
      key: "dtype"
      value {
        type: DT_STRING
      }
    }
    attr {
      key: "value"
      value {
        tensor {
          dtype: DT_STRING
          tensor_shape {
            dim {
              size: 1
            }
          }
          string_val: ""
        }
      }
    }
  }
  node {
    name: "save/RestoreV2_30"
    op: "RestoreV2"
    input: "save/Const"
    input: "save/RestoreV2_30/tensor_names"
    input: "save/RestoreV2_30/shape_and_slices"
    attr {
      key: "_output_shapes"
      value {
        list {
          shape {
            unknown_rank: true
          }
        }
      }
    }
    attr {
      key: "dtypes"
      value {
        list {
          type: DT_FLOAT
        }
      }
    }
  }
  node {
    name: "save/Assign_30"
    op: "Assign"
    input: "fc1/W/Adam"
    input: "save/RestoreV2_30"
    attr {
      key: "T"
      value {
        type: DT_FLOAT
      }
    }
    attr {
      key: "_class"
      value {
        list {
          s: "loc:@fc1/W"
        }
      }
    }
    attr {
      key: "_output_shapes"
      value {
        list {
          shape {
            dim {
              size: 625
            }
            dim {
              size: 10
            }
          }
        }
      }
    }
    attr {
      key: "use_locking"
      value {
        b: true
      }
    }
    attr {
      key: "validate_shape"
      value {
        b: true
      }
    }
  }
  node {
    name: "save/RestoreV2_31/tensor_names"
    op: "Const"
    attr {
      key: "_output_shapes"
      value {
        list {
          shape {
            dim {
              size: 1
            }
          }
        }
      }
    }
    attr {
      key: "dtype"
      value {
        type: DT_STRING
      }
    }
    attr {
      key: "value"
      value {
        tensor {
          dtype: DT_STRING
          tensor_shape {
            dim {
              size: 1
            }
          }
          string_val: "fc1/W/Adam_1"
        }
      }
    }
  }
  node {
    name: "save/RestoreV2_31/shape_and_slices"
    op: "Const"
    attr {
      key: "_output_shapes"
      value {
        list {
          shape {
            dim {
              size: 1
            }
          }
        }
      }
    }
    attr {
      key: "dtype"
      value {
        type: DT_STRING
      }
    }
    attr {
      key: "value"
      value {
        tensor {
          dtype: DT_STRING
          tensor_shape {
            dim {
              size: 1
            }
          }
          string_val: ""
        }
      }
    }
  }
  node {
    name: "save/RestoreV2_31"
    op: "RestoreV2"
    input: "save/Const"
    input: "save/RestoreV2_31/tensor_names"
    input: "save/RestoreV2_31/shape_and_slices"
    attr {
      key: "_output_shapes"
      value {
        list {
          shape {
            unknown_rank: true
          }
        }
      }
    }
    attr {
      key: "dtypes"
      value {
        list {
          type: DT_FLOAT
        }
      }
    }
  }
  node {
    name: "save/Assign_31"
    op: "Assign"
    input: "fc1/W/Adam_1"
    input: "save/RestoreV2_31"
    attr {
      key: "T"
      value {
        type: DT_FLOAT
      }
    }
    attr {
      key: "_class"
      value {
        list {
          s: "loc:@fc1/W"
        }
      }
    }
    attr {
      key: "_output_shapes"
      value {
        list {
          shape {
            dim {
              size: 625
            }
            dim {
              size: 10
            }
          }
        }
      }
    }
    attr {
      key: "use_locking"
      value {
        b: true
      }
    }
    attr {
      key: "validate_shape"
      value {
        b: true
      }
    }
  }
  node {
    name: "save/RestoreV2_32/tensor_names"
    op: "Const"
    attr {
      key: "_output_shapes"
      value {
        list {
          shape {
            dim {
              size: 1
            }
          }
        }
      }
    }
    attr {
      key: "dtype"
      value {
        type: DT_STRING
      }
    }
    attr {
      key: "value"
      value {
        tensor {
          dtype: DT_STRING
          tensor_shape {
            dim {
              size: 1
            }
          }
          string_val: "last_epoch"
        }
      }
    }
  }
  node {
    name: "save/RestoreV2_32/shape_and_slices"
    op: "Const"
    attr {
      key: "_output_shapes"
      value {
        list {
          shape {
            dim {
              size: 1
            }
          }
        }
      }
    }
    attr {
      key: "dtype"
      value {
        type: DT_STRING
      }
    }
    attr {
      key: "value"
      value {
        tensor {
          dtype: DT_STRING
          tensor_shape {
            dim {
              size: 1
            }
          }
          string_val: ""
        }
      }
    }
  }
  node {
    name: "save/RestoreV2_32"
    op: "RestoreV2"
    input: "save/Const"
    input: "save/RestoreV2_32/tensor_names"
    input: "save/RestoreV2_32/shape_and_slices"
    attr {
      key: "_output_shapes"
      value {
        list {
          shape {
            unknown_rank: true
          }
        }
      }
    }
    attr {
      key: "dtypes"
      value {
        list {
          type: DT_INT32
        }
      }
    }
  }
  node {
    name: "save/Assign_32"
    op: "Assign"
    input: "last_epoch"
    input: "save/RestoreV2_32"
    attr {
      key: "T"
      value {
        type: DT_INT32
      }
    }
    attr {
      key: "_class"
      value {
        list {
          s: "loc:@last_epoch"
        }
      }
    }
    attr {
      key: "_output_shapes"
      value {
        list {
          shape {
          }
        }
      }
    }
    attr {
      key: "use_locking"
      value {
        b: true
      }
    }
    attr {
      key: "validate_shape"
      value {
        b: true
      }
    }
  }
  node {
    name: "save/restore_all"
    op: "NoOp"
    input: "^save/Assign"
    input: "^save/Assign_1"
    input: "^save/Assign_2"
    input: "^save/Assign_3"
    input: "^save/Assign_4"
    input: "^save/Assign_5"
    input: "^save/Assign_6"
    input: "^save/Assign_7"
    input: "^save/Assign_8"
    input: "^save/Assign_9"
    input: "^save/Assign_10"
    input: "^save/Assign_11"
    input: "^save/Assign_12"
    input: "^save/Assign_13"
    input: "^save/Assign_14"
    input: "^save/Assign_15"
    input: "^save/Assign_16"
    input: "^save/Assign_17"
    input: "^save/Assign_18"
    input: "^save/Assign_19"
    input: "^save/Assign_20"
    input: "^save/Assign_21"
    input: "^save/Assign_22"
    input: "^save/Assign_23"
    input: "^save/Assign_24"
    input: "^save/Assign_25"
    input: "^save/Assign_26"
    input: "^save/Assign_27"
    input: "^save/Assign_28"
    input: "^save/Assign_29"
    input: "^save/Assign_30"
    input: "^save/Assign_31"
    input: "^save/Assign_32"
  }
  node {
    name: "Assign/value"
    op: "Const"
    attr {
      key: "_output_shapes"
      value {
        list {
          shape {
          }
        }
      }
    }
    attr {
      key: "dtype"
      value {
        type: DT_INT32
      }
    }
    attr {
      key: "value"
      value {
        tensor {
          dtype: DT_INT32
          tensor_shape {
          }
          int_val: 1
        }
      }
    }
  }
  node {
    name: "Assign"
    op: "Assign"
    input: "last_epoch"
    input: "Assign/value"
    attr {
      key: "T"
      value {
        type: DT_INT32
      }
    }
    attr {
      key: "_class"
      value {
        list {
          s: "loc:@last_epoch"
        }
      }
    }
    attr {
      key: "_output_shapes"
      value {
        list {
          shape {
          }
        }
      }
    }
    attr {
      key: "use_locking"
      value {
        b: false
      }
    }
    attr {
      key: "validate_shape"
      value {
        b: true
      }
    }
  }
  node {
    name: "Assign_1/value"
    op: "Const"
    attr {
      key: "_output_shapes"
      value {
        list {
          shape {
          }
        }
      }
    }
    attr {
      key: "dtype"
      value {
        type: DT_INT32
      }
    }
    attr {
      key: "value"
      value {
        tensor {
          dtype: DT_INT32
          tensor_shape {
          }
          int_val: 2
        }
      }
    }
  }
  node {
    name: "Assign_1"
    op: "Assign"
    input: "last_epoch"
    input: "Assign_1/value"
    attr {
      key: "T"
      value {
        type: DT_INT32
      }
    }
    attr {
      key: "_class"
      value {
        list {
          s: "loc:@last_epoch"
        }
      }
    }
    attr {
      key: "_output_shapes"
      value {
        list {
          shape {
          }
        }
      }
    }
    attr {
      key: "use_locking"
      value {
        b: false
      }
    }
    attr {
      key: "validate_shape"
      value {
        b: true
      }
    }
  }
  node {
    name: "Assign_2/value"
    op: "Const"
    attr {
      key: "_output_shapes"
      value {
        list {
          shape {
          }
        }
      }
    }
    attr {
      key: "dtype"
      value {
        type: DT_INT32
      }
    }
    attr {
      key: "value"
      value {
        tensor {
          dtype: DT_INT32
          tensor_shape {
          }
          int_val: 3
        }
      }
    }
  }
  node {
    name: "Assign_2"
    op: "Assign"
    input: "last_epoch"
    input: "Assign_2/value"
    attr {
      key: "T"
      value {
        type: DT_INT32
      }
    }
    attr {
      key: "_class"
      value {
        list {
          s: "loc:@last_epoch"
        }
      }
    }
    attr {
      key: "_output_shapes"
      value {
        list {
          shape {
          }
        }
      }
    }
    attr {
      key: "use_locking"
      value {
        b: false
      }
    }
    attr {
      key: "validate_shape"
      value {
        b: true
      }
    }
  }
  node {
    name: "Assign_3/value"
    op: "Const"
    attr {
      key: "_output_shapes"
      value {
        list {
          shape {
          }
        }
      }
    }
    attr {
      key: "dtype"
      value {
        type: DT_INT32
      }
    }
    attr {
      key: "value"
      value {
        tensor {
          dtype: DT_INT32
          tensor_shape {
          }
          int_val: 4
        }
      }
    }
  }
  node {
    name: "Assign_3"
    op: "Assign"
    input: "last_epoch"
    input: "Assign_3/value"
    attr {
      key: "T"
      value {
        type: DT_INT32
      }
    }
    attr {
      key: "_class"
      value {
        list {
          s: "loc:@last_epoch"
        }
      }
    }
    attr {
      key: "_output_shapes"
      value {
        list {
          shape {
          }
        }
      }
    }
    attr {
      key: "use_locking"
      value {
        b: false
      }
    }
    attr {
      key: "validate_shape"
      value {
        b: true
      }
    }
  }
  node {
    name: "Assign_4/value"
    op: "Const"
    attr {
      key: "_output_shapes"
      value {
        list {
          shape {
          }
        }
      }
    }
    attr {
      key: "dtype"
      value {
        type: DT_INT32
      }
    }
    attr {
      key: "value"
      value {
        tensor {
          dtype: DT_INT32
          tensor_shape {
          }
          int_val: 5
        }
      }
    }
  }
  node {
    name: "Assign_4"
    op: "Assign"
    input: "last_epoch"
    input: "Assign_4/value"
    attr {
      key: "T"
      value {
        type: DT_INT32
      }
    }
    attr {
      key: "_class"
      value {
        list {
          s: "loc:@last_epoch"
        }
      }
    }
    attr {
      key: "_output_shapes"
      value {
        list {
          shape {
          }
        }
      }
    }
    attr {
      key: "use_locking"
      value {
        b: false
      }
    }
    attr {
      key: "validate_shape"
      value {
        b: true
      }
    }
  }
  node {
    name: "Assign_5/value"
    op: "Const"
    attr {
      key: "_output_shapes"
      value {
        list {
          shape {
          }
        }
      }
    }
    attr {
      key: "dtype"
      value {
        type: DT_INT32
      }
    }
    attr {
      key: "value"
      value {
        tensor {
          dtype: DT_INT32
          tensor_shape {
          }
          int_val: 6
        }
      }
    }
  }
  node {
    name: "Assign_5"
    op: "Assign"
    input: "last_epoch"
    input: "Assign_5/value"
    attr {
      key: "T"
      value {
        type: DT_INT32
      }
    }
    attr {
      key: "_class"
      value {
        list {
          s: "loc:@last_epoch"
        }
      }
    }
    attr {
      key: "_output_shapes"
      value {
        list {
          shape {
          }
        }
      }
    }
    attr {
      key: "use_locking"
      value {
        b: false
      }
    }
    attr {
      key: "validate_shape"
      value {
        b: true
      }
    }
  }
  node {
    name: "Assign_6/value"
    op: "Const"
    attr {
      key: "_output_shapes"
      value {
        list {
          shape {
          }
        }
      }
    }
    attr {
      key: "dtype"
      value {
        type: DT_INT32
      }
    }
    attr {
      key: "value"
      value {
        tensor {
          dtype: DT_INT32
          tensor_shape {
          }
          int_val: 7
        }
      }
    }
  }
  node {
    name: "Assign_6"
    op: "Assign"
    input: "last_epoch"
    input: "Assign_6/value"
    attr {
      key: "T"
      value {
        type: DT_INT32
      }
    }
    attr {
      key: "_class"
      value {
        list {
          s: "loc:@last_epoch"
        }
      }
    }
    attr {
      key: "_output_shapes"
      value {
        list {
          shape {
          }
        }
      }
    }
    attr {
      key: "use_locking"
      value {
        b: false
      }
    }
    attr {
      key: "validate_shape"
      value {
        b: true
      }
    }
  }
  versions {
    producer: 24
  }
}
collection_def {
  key: "regularization_losses"
  value {
    node_list {
      value: "conv0/W/Regularizer/l2_regularizer:0"
      value: "conv1/W/Regularizer/l2_regularizer:0"
      value: "conv2/W/Regularizer/l2_regularizer:0"
      value: "fc0/W/Regularizer/l2_regularizer:0"
      value: "fc1/W/Regularizer/l2_regularizer:0"
    }
  }
}
collection_def {
  key: "train_op"
  value {
    node_list {
      value: "Adam"
    }
  }
}
collection_def {
  key: "trainable_variables"
  value {
    bytes_list {
      value: "\n\tconv0/W:0\022\016conv0/W/Assign\032\016conv0/W/read:02$conv0/W/Initializer/random_uniform:0"
      value: "\n\020conv0/Variable:0\022\025conv0/Variable/Assign\032\025conv0/Variable/read:02\025conv0/random_normal:0"
      value: "\n\tconv1/W:0\022\016conv1/W/Assign\032\016conv1/W/read:02$conv1/W/Initializer/random_uniform:0"
      value: "\n\020conv1/Variable:0\022\025conv1/Variable/Assign\032\025conv1/Variable/read:02\025conv1/random_normal:0"
      value: "\n\tconv2/W:0\022\016conv2/W/Assign\032\016conv2/W/read:02$conv2/W/Initializer/random_uniform:0"
      value: "\n\020conv2/Variable:0\022\025conv2/Variable/Assign\032\025conv2/Variable/read:02\025conv2/random_normal:0"
      value: "\n\007fc0/W:0\022\014fc0/W/Assign\032\014fc0/W/read:02\"fc0/W/Initializer/random_uniform:0"
      value: "\n\016fc0/Variable:0\022\023fc0/Variable/Assign\032\023fc0/Variable/read:02\023fc0/random_normal:0"
      value: "\n\007fc1/W:0\022\014fc1/W/Assign\032\014fc1/W/read:02\"fc1/W/Initializer/random_uniform:0"
      value: "\n\016fc1/Variable:0\022\023fc1/Variable/Assign\032\023fc1/Variable/read:02\023fc1/random_normal:0"
      value: "\n\014last_epoch:0\022\021last_epoch/Assign\032\021last_epoch/read:02\032last_epoch/initial_value:0"
    }
  }
}
collection_def {
  key: "variables"
  value {
    bytes_list {
      value: "\n\tconv0/W:0\022\016conv0/W/Assign\032\016conv0/W/read:02$conv0/W/Initializer/random_uniform:0"
      value: "\n\020conv0/Variable:0\022\025conv0/Variable/Assign\032\025conv0/Variable/read:02\025conv0/random_normal:0"
      value: "\n\tconv1/W:0\022\016conv1/W/Assign\032\016conv1/W/read:02$conv1/W/Initializer/random_uniform:0"
      value: "\n\020conv1/Variable:0\022\025conv1/Variable/Assign\032\025conv1/Variable/read:02\025conv1/random_normal:0"
      value: "\n\tconv2/W:0\022\016conv2/W/Assign\032\016conv2/W/read:02$conv2/W/Initializer/random_uniform:0"
      value: "\n\020conv2/Variable:0\022\025conv2/Variable/Assign\032\025conv2/Variable/read:02\025conv2/random_normal:0"
      value: "\n\007fc0/W:0\022\014fc0/W/Assign\032\014fc0/W/read:02\"fc0/W/Initializer/random_uniform:0"
      value: "\n\016fc0/Variable:0\022\023fc0/Variable/Assign\032\023fc0/Variable/read:02\023fc0/random_normal:0"
      value: "\n\007fc1/W:0\022\014fc1/W/Assign\032\014fc1/W/read:02\"fc1/W/Initializer/random_uniform:0"
      value: "\n\016fc1/Variable:0\022\023fc1/Variable/Assign\032\023fc1/Variable/read:02\023fc1/random_normal:0"
      value: "\n\rbeta1_power:0\022\022beta1_power/Assign\032\022beta1_power/read:02\033beta1_power/initial_value:0"
      value: "\n\rbeta2_power:0\022\022beta2_power/Assign\032\022beta2_power/read:02\033beta2_power/initial_value:0"
      value: "\n\016conv0/W/Adam:0\022\023conv0/W/Adam/Assign\032\023conv0/W/Adam/read:02 conv0/W/Adam/Initializer/zeros:0"
      value: "\n\020conv0/W/Adam_1:0\022\025conv0/W/Adam_1/Assign\032\025conv0/W/Adam_1/read:02\"conv0/W/Adam_1/Initializer/zeros:0"
      value: "\n\025conv0/Variable/Adam:0\022\032conv0/Variable/Adam/Assign\032\032conv0/Variable/Adam/read:02\'conv0/Variable/Adam/Initializer/zeros:0"
      value: "\n\027conv0/Variable/Adam_1:0\022\034conv0/Variable/Adam_1/Assign\032\034conv0/Variable/Adam_1/read:02)conv0/Variable/Adam_1/Initializer/zeros:0"
      value: "\n\016conv1/W/Adam:0\022\023conv1/W/Adam/Assign\032\023conv1/W/Adam/read:02 conv1/W/Adam/Initializer/zeros:0"
      value: "\n\020conv1/W/Adam_1:0\022\025conv1/W/Adam_1/Assign\032\025conv1/W/Adam_1/read:02\"conv1/W/Adam_1/Initializer/zeros:0"
      value: "\n\025conv1/Variable/Adam:0\022\032conv1/Variable/Adam/Assign\032\032conv1/Variable/Adam/read:02\'conv1/Variable/Adam/Initializer/zeros:0"
      value: "\n\027conv1/Variable/Adam_1:0\022\034conv1/Variable/Adam_1/Assign\032\034conv1/Variable/Adam_1/read:02)conv1/Variable/Adam_1/Initializer/zeros:0"
      value: "\n\016conv2/W/Adam:0\022\023conv2/W/Adam/Assign\032\023conv2/W/Adam/read:02 conv2/W/Adam/Initializer/zeros:0"
      value: "\n\020conv2/W/Adam_1:0\022\025conv2/W/Adam_1/Assign\032\025conv2/W/Adam_1/read:02\"conv2/W/Adam_1/Initializer/zeros:0"
      value: "\n\025conv2/Variable/Adam:0\022\032conv2/Variable/Adam/Assign\032\032conv2/Variable/Adam/read:02\'conv2/Variable/Adam/Initializer/zeros:0"
      value: "\n\027conv2/Variable/Adam_1:0\022\034conv2/Variable/Adam_1/Assign\032\034conv2/Variable/Adam_1/read:02)conv2/Variable/Adam_1/Initializer/zeros:0"
      value: "\n\014fc0/W/Adam:0\022\021fc0/W/Adam/Assign\032\021fc0/W/Adam/read:02\036fc0/W/Adam/Initializer/zeros:0"
      value: "\n\016fc0/W/Adam_1:0\022\023fc0/W/Adam_1/Assign\032\023fc0/W/Adam_1/read:02 fc0/W/Adam_1/Initializer/zeros:0"
      value: "\n\023fc0/Variable/Adam:0\022\030fc0/Variable/Adam/Assign\032\030fc0/Variable/Adam/read:02%fc0/Variable/Adam/Initializer/zeros:0"
      value: "\n\025fc0/Variable/Adam_1:0\022\032fc0/Variable/Adam_1/Assign\032\032fc0/Variable/Adam_1/read:02\'fc0/Variable/Adam_1/Initializer/zeros:0"
      value: "\n\014fc1/W/Adam:0\022\021fc1/W/Adam/Assign\032\021fc1/W/Adam/read:02\036fc1/W/Adam/Initializer/zeros:0"
      value: "\n\016fc1/W/Adam_1:0\022\023fc1/W/Adam_1/Assign\032\023fc1/W/Adam_1/read:02 fc1/W/Adam_1/Initializer/zeros:0"
      value: "\n\023fc1/Variable/Adam:0\022\030fc1/Variable/Adam/Assign\032\030fc1/Variable/Adam/read:02%fc1/Variable/Adam/Initializer/zeros:0"
      value: "\n\025fc1/Variable/Adam_1:0\022\032fc1/Variable/Adam_1/Assign\032\032fc1/Variable/Adam_1/read:02\'fc1/Variable/Adam_1/Initializer/zeros:0"
      value: "\n\014last_epoch:0\022\021last_epoch/Assign\032\021last_epoch/read:02\032last_epoch/initial_value:0"
    }
  }
}
